checkpoints/epoch=0-step=1000-v2.ckpt (torch, 432592 bytes, 192 tensors)

model.encoder.transformer_encoder.mhca_layers.0.attn.to_q.weight f4 [48, 32]
000000 55 02 bc bc 67 e4 57 3e 9a ac b9 be f1 42 a0 be
       -0.02295033 0.21083222 -0.36264497 -0.31301072
000010 16 0f 1b be 08 ab 01 3e 3d 02 16 bd 0b 9a b6 3e
       -0.15142474 0.126629 -0.03662323 0.356644
000020 1a bd 9a bc 73 76 0e 3e 0d f3 06 be f5 ac 99 bd
       -0.018888999 0.13912372 -0.13178654 -0.07503692
000030 1f 83 c9 be d0 62 8b be aa 50 20 be 92 1b 6d bb
       -0.3935785 -0.27223825 -0.15655771 -0.0036179763
000040 06 a3 47 3e b9 32 8e 3e 1f 66 8e be 25 6b 53 be
       0.19495782 0.27773073 -0.27812287 -0.20646341
000050 58 f5 29 3e 5c c9 be 3e f4 5a b0 bd 53 b4 ae 3e
       0.16597497 0.37263 -0.08611098 0.3412195
000060 03 81 94 bd e0 5d 0a 3d 0c 32 c8 3e 7c 97 c4 be
       -0.072511695 0.033780932 0.39100683 -0.38396823
000070 d8 d0 92 be ca 2c 0b be 1f d0 3b be 99 1d b4 3e
       -0.2867496 -0.13591304 -0.1834111 0.3517883
000080 64 cb 9d be cc 84 6b be a6 17 ae be 72 7d cd be
       -0.30819237 -0.22999877 -0.34002417 -0.4013477
000090 a6 f2 7c be b7 22 c1 3e 7b 56 26 3e 45 ef 6f 3e
       -0.24701938 0.37721798 0.16243927 0.23431118
0000a0 b9 67 52 3d e9 15 40 be f2 3e a2 3d 2b d2 d0 be
       0.05136845 -0.18758358 0.07922162 -0.40785345
0000b0 97 53 92 be a1 9b 68 be 89 ae a1 3e 2b 98 77 3e
       -0.285794 -0.22715618 0.31578472 0.24179141
0000c0 70 8b 1a be 99 40 71 bc 0c 06 8a 3e 48 df d6 3e
       -0.15092254 -0.014724874 0.26957738 0.41967225
0000d0 13 d4 36 3e 26 ea 5f 3d 09 62 95 3e 32 6b 7e be
       0.17854337 0.05466666 0.29176357 -0.2484558
0000e0 e4 0f b5 3d c0 94 b9 be 25 5c 92 be d5 bd 5e be
       0.088409215 -0.362463 -0.28585926 -0.21752103
0000f0 6c cf 37 3e 79 67 07 3e 9f 6b 84 be 8c 95 e6 3d
       0.17950219 0.13223065 -0.25863358 0.112589926
000100 34 32 7a 3e 90 fc 38 bd b9 0a 11 3d d4 87 c5 3d
       0.24433213 -0.045162737 0.035410617 0.09645048
000110 5f b8 8e 3e 5a a1 da 3e 2d 67 a5 be 42 7d 3a be
       0.2787504 0.42701226 -0.3230528 -0.18211845
000120 14 01 29 3e 5a 80 b3 3e c8 64 ba 3e fb 5d cb 3e
       0.16504318 0.35058862 0.36405015 0.3972014
000130 85 d7 8c 3d 2e 71 ba be 2a 0e e8 3c fa ac 89 be
       0.068770446 -0.36414474 0.028327066 -0.26889783
000140 cc 43 d8 be 39 df cf 3e 32 0c b3 3e a6 01 e0 be
       -0.42239225 0.40599993 0.34970242 -0.43751258
000150 c3 d0 ba 3d 8b bc 85 bd db c9 b5 bd 4b f6 3d be
       0.091218494 -0.06530102 -0.088763915 -0.18550985
000160 e8 b4 13 3e 94 6f 8d be e4 19 27 3e cc c9 68 3e
       0.14424479 -0.2762419 0.1631847 0.2273323
000170 24 55 9f 3e f9 17 3b 3e 60 8d de be 6d 07 94 be
       0.31119645 0.18270864 -0.43467236 -0.28911915
000180 7e 75 70 3e 1f 7c b9 3d af f6 b6 be cd 27 87 be
       0.2348232 0.09056877 -0.3573508 -0.26397553
000190 ec 5c d6 3e 88 ee 95 3e b6 60 2b be 5b d9 03 be
       0.4186777 0.29283547 -0.16736111 -0.12875883
0001a0 42 e8 db be 59 eb a6 bc 3c 21 a9 be 49 d2 ab be
       -0.42950636 -0.020375894 -0.33033168 -0.33558872
0001b0 cc a3 23 bd 6b 49 68 3d c1 90 29 be 20 63 79 3e
       -0.03995113 0.05671064 -0.16559125 0.2435422
0001c0 8b 91 8f be d4 53 ca 3e 8d 12 9c 3e 18 30 ba be
       -0.28040728 0.3951708 0.30482903 -0.36364818
0001d0 05 fc d8 bd 00 7b 17 3c 7d 5c 15 3d 5a 25 d5 3d
       -0.10594944 0.009245634 0.036465157 0.10407515
0001e0 2b 01 1b 3e 22 a6 fa 3b 67 57 35 be 29 cc 53 3e
       0.15137164 0.007649199 -0.17709123 0.2068335
0001f0 3a eb d1 be 18 6d 71 be f8 ca da bd 85 8d 51 be
       -0.40999776 -0.23576772 -0.106832445 -0.20464142
000200 8a f3 1e be 6f 9e be be 38 ce b3 bd 3c ca d2 3d
       -0.1552259 -0.3723025 -0.087795675 0.102924794
000210 12 29 85 be b3 e9 db bb 0c a1 98 3e fa dc 50 bd
       -0.26007897 -0.0067112087 0.2981037 -0.05099199
000220 93 d7 88 3c 33 ab 39 bd 4a 7f 9d 3d 8d 9b 96 3e
       0.016704356 -0.045329284 0.07690294 0.2941555
000230 fd 85 da 3e 77 17 92 3e d3 94 e2 3e 13 7c 56 bd
       0.4268035 0.28533527 0.4425417 -0.05236442
000240 55 4f bc be 69 72 45 be 22 fa a3 3e 35 6b dd bc
       -0.36779276 -0.19281925 0.32026774 -0.02702866
000250 40 c2 51 be 85 aa 9f be ce 6e d2 be 17 1d b0 be
       -0.20484257 -0.31184784 -0.41100162 -0.34397194
000260 0a 15 d8 bd 9d b9 6d 3e 3a ee 72 3e b2 5c ca be
       -0.10550888 0.23215337 0.23723689 -0.39523846
000270 1a 13 85 3e e1 08 b5 be e1 0c f2 bd 80 f9 3a be
       0.25991136 -0.35358337 -0.11818863 -0.18259239
000280 1a d1 a5 bd f7 4f cc bd 1a 1f d3 be 3e a3 c0 be
       -0.080965236 -0.099761896 -0.41234666 -0.37624544
000290 04 08 9d bd ff 76 d7 bb f3 05 61 be da 32 46 3e
       -0.076675445 -0.0065754647 -0.21974926 0.19355336
0002a0 a2 9f b6 be 2d f3 23 bd c8 e1 cb 3e d2 11 3c be
       -0.35668665 -0.040026832 0.39820695 -0.18366173
0002b0 1a ba d1 3e 13 ea 11 3e 3d d7 c2 be c7 4e 8c 3e
       0.40962297 0.14249448 -0.3805484 0.27403852
0002c0 a7 48 d1 bc 03 8b 54 be 9b 67 ab 3e c5 a6 b4 be
       -0.025547339 -0.20756154 0.33477482 -0.35283485
0002d0 2c 2d f8 3c 9a df bc bd be e4 a4 3e c7 44 e9 3d
       0.030294977 -0.09222336 0.32205766 0.11390071
0002e0 6f 01 6f 3e a6 9d 3a 3e 49 e3 07 be 92 39 c3 bd
       0.2334039 0.182242 -0.13270296 -0.09532465
0002f0 66 f3 ba be 61 6a 5a 3e 73 fc af 3e 1c 2a 94 3e
       -0.36513823 0.21329643 0.3437229 0.28938377
000300 a1 28 9d be 1b 3b 05 3d f6 76 94 be 5d 7b 6b be
       -0.3069506 0.03252707 -0.2899701 -0.22996278
000310 79 c7 7a be bb 89 29 3e 9e c8 6e be b0 ab 3b bd
       -0.24490155 0.16556446 -0.23318717 -0.04581803
000320 dd bd 7e bc b8 c7 96 3e c8 0f b1 be 7d f1 8f be
       -0.015548197 0.29449248 -0.34582353 -0.28113928
000330 ed d5 89 be 88 ad a4 3e ba b8 2f be b8 a6 b5 3e
       -0.26921025 0.32163644 -0.17160311 0.3547876
000340 52 45 06 3e a5 6d a2 3d 34 fb 72 3c 17 6a b4 bd
       0.13112381 0.07931069 0.014830399 -0.088092975
000350 bd e7 93 3d 6a 9f c2 bd 99 06 98 bc bd b8 89 3d
       0.07221935 -0.09503062 -0.018557834 0.06724689
000360 53 3c bc be 98 71 86 be a8 68 c1 3e 9d 74 af be
       -0.36764774 -0.2625854 0.3777516 -0.34268656
000370 b5 8c e4 bc ea fb e5 3e 98 b1 19 3e c8 d6 01 3c
       -0.027899126 0.44918758 0.15009153 0.007924743
000380 ee 65 bc be 47 69 4a 3e 46 4a a6 be d5 17 fe bd
       -0.36796516 0.19766723 -0.3247854 -0.12406889
000390 2a b9 05 be 99 17 70 bd 20 15 73 bc a4 6b bd 3e
       -0.13058916 -0.058616254 -0.01483658 0.36996186
0003a0 ca 49 99 3d bb ba c2 3e 83 29 87 3e 81 93 85 be
       0.07484777 0.3803309 0.26398858 -0.260891
0003b0 0f f3 59 3e c3 82 9b be 7a 53 2d be 17 cc f2 3d
       0.21284126 -0.303732 -0.16926375 0.11855333
0003c0 3d 77 21 3e fe ae ab 3e ef 1d 04 be 65 d3 82 bc
       0.15768142 0.33531946 -0.12902044 -0.015969941
0003d0 f9 85 63 3e ca f5 d6 be 4c 02 a4 3e 81 fe b2 be
       0.22219075 -0.41984397 0.32033002 -0.34959796
0003e0 da 74 c9 3c 85 b1 8b bd e1 46 7d be 69 84 8b 3d
       0.024591852 -0.068209685 -0.2473407 0.068123646
0003f0 ec cc ab 3e e4 bb 0d be 57 2b 8b be 5d d6 3b be
       0.3355478 -0.13841206 -0.27181503 -0.18343492

model.encoder.transformer_encoder.mhca_layers.0.attn.to_k.weight f4 [48, 32]
000000 f5 2e 23 be f1 d2 03 3e d8 64 4e 3e c2 3b 92 bc
       -0.15935881 0.12873437 0.20155656 -0.01785076
000010 52 8f d7 3e 5b 27 97 be 26 ae 2e 3e c5 a6 c6 3e
       0.42101532 -0.29522213 0.1705862 0.3879911
000020 84 8b 94 bd 52 32 b5 3e e8 1c 9d 3b 51 69 ab be
       -0.07253173 0.35389954 0.0047947057 -0.33478788
000030 fe 79 6f be be 43 1d 3e 8f e2 1c be ac 15 04 3e
       -0.2338638 0.15357873 -0.153208 0.12898892
000040 10 5a e2 3e c1 61 16 3e ae fc 24 bd 18 09 a5 3d
       0.44209337 0.14685728 -0.040280037 0.08058375
000050 07 8c 6d be d4 85 b9 be 56 fa b6 be 2c 54 b5 be
       -0.23197947 -0.36234915 -0.35737866 -0.3541578
000060 d4 f2 76 3d a6 40 9e 3d 36 e8 32 be 8e de d0 be
       0.060290173 0.077271745 -0.17471394 -0.40794796
000070 76 19 68 3e e5 e5 80 be 5b 0e a5 bd f2 fc b8 be
       0.22665963 -0.25175396 -0.08059379 -0.36130482
000080 bb cf 79 be 33 53 39 3e 94 72 d6 be 3e e7 5c be
       -0.24395649 0.18098144 -0.4188429 -0.21572587
000090 3f 76 a2 3e f3 09 46 be 73 32 28 be c3 d3 ee bd
       0.3173084 -0.19339733 -0.16425495 -0.11661484
0000a0 3b 87 35 3e 22 57 8c be ae 96 b5 3c 46 aa 43 3e
       0.17727368 -0.27410227 0.022166576 0.19107923
0000b0 d5 7c 98 bc 7a ab be 3d 59 97 a2 be 41 49 41 3e
       -0.018614212 0.0931005 -0.31756094 0.188756
0000c0 d6 09 2f 3e 19 f5 4f bd 45 bf b6 be 60 8e 19 3e
       0.17093596 -0.050770853 -0.35692802 0.14995718
0000d0 8f 7d 9a 3e 6e a6 91 bd a6 f2 63 3e 8e e6 34 3e
       0.3017392 -0.07111822 0.22260532 0.17666075
0000e0 f9 93 24 be 65 6c 2d bd bb 6c dc 3e d5 0d 9f 3c
       -0.16072072 -0.0423397 0.43051705 0.019415775
0000f0 82 ed ba be 38 11 d2 bc 76 59 52 3e e1 26 22 be
       -0.3650933 -0.025642976 0.20541939 -0.15835144
000100 50 10 6b be 04 cb ae 3e f1 22 62 3e fa bf ed bd
       -0.22955441 0.34139264 0.22083642 -0.11608882
000110 65 fc 32 3d 0b fc 86 bd d4 5d d8 3d 47 d0 84 3c
       0.043697733 -0.06591042 0.10564771 0.016212596
000120 28 c8 8a be 2d e3 b5 3d 54 1c 10 3d 22 96 ce 3c
       -0.27105832 0.08881221 0.035183266 0.025218073
000130 b4 10 43 be 77 d2 c6 3d a4 e2 b3 be a5 b3 0d 3e
       -0.1904934 0.09708112 -0.3513385 0.1383806
000140 af 03 5e 3e c3 82 09 bd 8e 50 a6 be d9 07 9b 3c
       0.21681093 -0.03357197 -0.32483333 0.01892464
000150 63 46 bd bc c2 a7 c8 be 60 ce a5 be 29 91 cb 3e
       -0.023104852 -0.3919049 -0.32384014 0.39759186
000160 05 99 ab 3e 9c 3c 6a 3e 48 d7 a5 3e b8 db 1e 3e
       0.33515182 0.22874683 0.3239081 0.15513504
000170 2b 1e 87 3e e6 a7 93 3e f3 c0 cf bd 14 4a 2c bd
       0.26390204 0.28839034 -0.10144224 -0.042062834
000180 4c ae 9f 3e a3 de 12 bc a4 99 8f be 7c d8 bc be
       0.31187665 -0.008964214 -0.28046906 -0.36883914
000190 64 e1 83 3e 6d a1 ac 3e e8 1c ab 3e f7 5c 8b 3d
       0.25757897 0.33716908 0.3342049 0.06804841
0001a0 9d e3 95 3e 64 c7 cb be d1 81 96 be 50 d0 d6 be
       0.29275218 -0.3980056 -0.29395917 -0.41955805
0001b0 32 54 aa 3e 88 0d 9b bc e8 33 50 be 17 12 20 3e
       0.3326736 -0.01892735 -0.203323 0.156319
0001c0 36 d2 36 be 55 9a 8a be 5c 09 33 3e 41 0c ca 3d
       -0.17853627 -0.2707087 0.17484039 0.098656185
0001d0 cf f6 a8 be fe b1 98 be 88 a1 3b 3e 1a 0c a6 3e
       -0.330008 -0.29823297 0.18323338 0.32431108
0001e0 4d 92 1f 3d a5 de 5f be c8 de 65 3e 27 30 83 3d
       0.038957883 -0.21862276 0.22448266 0.06405669
0001f0 b4 4d b9 be 71 be 8e be c7 d0 bd 3d 6b b2 91 3e
       -0.36192095 -0.2787967 0.09268337 0.28456435
000200 eb c0 15 be 75 85 58 3e e7 6f 93 be d8 38 dc 3e
       -0.14624374 0.2114466 -0.28796312 0.43012118
000210 4b 7b 98 3e 81 09 c4 3d ec 36 45 3e d3 d3 2d 3e
       0.29781565 0.09572125 0.19259232 0.16975336
000220 80 6b 81 be 4a 1e 4c 3b 51 99 dc 3d 77 b5 cc bd
       -0.25277328 0.0031145983 0.1077143 -0.09995549
000230 24 39 dd 3e 8f 1a 24 be d2 30 c0 be ae 24 64 be
       0.43207657 -0.16025756 -0.37537247 -0.22279617
000240 28 7d c5 be 37 5e b4 3e a9 62 51 be e0 7e a4 be
       -0.3857205 0.3522813 -0.20447792 -0.32128048
000250 aa 5f 15 bd ac 54 92 be c3 0e 4e be cf d5 68 3e
       -0.036468185 -0.28580225 -0.20122819 0.22737812
000260 98 66 9e be f2 aa 48 3e 13 e8 9f 3e a9 2e 11 3c
       -0.30937648 0.1959646 0.31231746 0.008861222
000270 2f 70 2d 3e cd 9f 81 be aa d1 b0 3e d0 04 d2 3e
       0.16937326 -0.2531723 0.3453496 0.41019297
000280 e0 2c d3 3d e6 e9 d2 3e 7d 0c d6 be 40 8d 07 bd
       0.103112936 0.41194075 -0.41806403 -0.03309369
000290 05 18 77 3d 7b 05 be be 09 10 47 3e b3 05 0f be
       0.06032564 -0.37113556 0.1943971 -0.13967018
0002a0 45 85 07 be aa 95 b7 be 58 56 26 3e 5c 21 a8 be
       -0.13234432 -0.35856372 0.16243875 -0.3283795
0002b0 2d 43 7c bd 7b b5 3f 3e 43 f7 a7 3e c8 ec 86 3d
       -0.0615875 0.18721573 0.32805833 0.06588131
0002c0 89 1d 0c be c1 4b 5a be 37 4d 5a 3e ab a4 87 3d
       -0.13683142 -0.2131796 0.21318518 0.06623205
0002d0 d4 87 bd 3e dd a6 37 3e 5a 2b c3 3e 9f 2c b6 be
       0.3701769 0.17934747 0.38119012 -0.35580918
0002e0 11 80 b5 3e 89 1e 35 be ec 24 1d be 63 90 1b 3c
       0.3544927 -0.1768743 -0.15346116 0.009494874
0002f0 a1 8b e3 bd e8 e9 98 3d 82 b0 cf 3e a8 41 87 be
       -0.111106165 0.07466489 0.40564352 -0.2641728
000300 08 80 df 3d c7 3e c1 be 75 50 15 3d b1 f2 ba 3e
       0.10913092 -0.37743208 0.036453683 0.36513284
000310 c2 18 a3 3e 85 11 cc 3e 39 df 8d 3e d4 f7 7a bd
       0.31854826 0.39857116 0.27709368 -0.061271504
000320 73 d8 bb 3d 07 13 11 be 07 34 b7 3e 76 52 7b 3e
       0.09172144 -0.14167415 0.3578188 0.24543175
000330 22 64 b3 be 83 c0 ce 3e 6b 86 98 3c d0 0b c8 3c
       -0.35037333 0.4038125 0.018618783 0.024419695
000340 cb 8b f0 bd 58 da a5 bd 07 cd 52 3d 4d 0c 63 be
       -0.117454134 -0.080982864 0.05146506 -0.22172661
000350 46 a3 c7 be a3 dc 76 be 93 8f cf bd 65 43 b5 3e
       -0.38991755 -0.24107604 -0.101348065 0.3540298
000360 5d d7 9e 3e 68 6e 9a be 41 d5 a7 3c ce 90 e5 bd
       0.31023684 -0.30162358 0.02048743 -0.1120926
000370 b2 80 65 be ab bd 42 bd 13 d8 34 be 29 5d 52 3e
       -0.22412375 -0.047544163 -0.17660551 0.2054335
000380 96 49 68 be 68 f2 a6 3d 8c 9d 69 be f4 75 12 be
       -0.22684321 0.08151704 -0.22814006 -0.14302808
000390 0e fc a4 3e 5e a5 6a be 77 9d 36 bd 8e 87 df 3e
       0.32223552 -0.22914645 -0.044583764 0.43658108
0003a0 59 b3 33 3e ca 8b 68 be fb d4 7b be 8f 14 36 be
       0.17548884 -0.22709575 -0.24592964 -0.1778128
0003b0 34 de f7 bd 8d 51 3a 3e 0f df c7 bd 81 90 b2 3e
       -0.12102929 0.18195172 -0.09759342 0.34875873
0003c0 69 92 62 be 7e 98 19 be a8 16 08 3e 15 44 ad 3e
       -0.22126164 -0.14999577 0.13289893 0.33841005
0003d0 60 c0 d5 3e 3e b0 ad 3d c9 54 1a 3d c0 ff 59 be
       0.41748333 0.08480881 0.037678514 -0.21288967
0003e0 f6 e4 6d 3e e2 cb 6b be 21 fb 10 be 1c 56 c0 be
       0.23231873 -0.23026994 -0.14158298 -0.37565696
0003f0 b6 02 e0 be 51 2a 6b 3e 1e 6b 63 3d 49 cd aa 3e
       -0.43752068 0.22965361 0.055522077 0.33359745

model.encoder.transformer_encoder.mhca_layers.0.attn.to_v.weight f4 [48, 32]
000000 a1 7a cd 3e c5 b4 a9 3e 6c 0c c3 be 2a 4c 3a be
       0.4013262 0.3314573 -0.38095415 -0.18193117
000010 f4 1b 71 3e 5f 98 80 be 58 4e c3 3d 8d e8 45 be
       0.2354582 -0.2511625 0.09536427 -0.19326992
000020 6f 84 af 3d 6a b7 58 3e 89 4d 0e 3e de 80 9f 3e
       0.085701816 0.21163717 0.13896765 0.31153005
000030 a6 2f 72 bd 72 78 6f 3e b5 ce ed 3d aa 1d f8 bd
       -0.059127472 0.2338579 0.11611692 -0.12115033
000040 4f a1 9f be 01 c3 c8 3e cd 0e 08 be dc dd a6 3e
       -0.31177756 0.39211276 -0.13286896 0.3259114
000050 3d 35 8b 3e 8d 78 96 bc 19 b4 b9 be 09 b8 18 3d
       0.27189055 -0.01836803 -0.36270216 0.037284885
000060 02 e8 48 be 74 94 dd 3d f8 5b 23 be 8c 0b ad 3e
       -0.19619754 0.10819331 -0.15953052 0.33797872
000070 90 88 cc be 12 d4 e1 bd 50 29 8e 3d 59 f6 41 3d
       -0.3994794 -0.11026777 0.069414735 0.047354076
000080 ec c0 a8 3e dc 50 09 be f5 07 ad be 13 f4 96 3e
       0.32959688 -0.13409752 -0.33795133 0.2948309
000090 4f 96 e8 3d 88 13 93 3e dc f4 8b be 57 37 6c be
       0.11356794 0.2872584 -0.2733525 -0.23067985
0000a0 0f 65 25 be f3 8e f3 3c 7f 6b 13 3e f4 47 7c be
       -0.16151832 0.02973125 0.14396475 -0.24636823
0000b0 96 21 9c bc 62 77 88 bd 59 b6 c5 3e 05 aa 0b be
       -0.019058984 -0.066633955 0.38615683 -0.13639076
0000c0 1a 7c df 3e f3 d9 85 be cf f4 40 be 66 7a a7 be
       0.4364937 -0.26142845 -0.18843387 -0.3271057
0000d0 c0 c1 a5 3e b2 9c 95 be a9 c9 68 3e 5d 90 22 be
       0.32374382 -0.29221112 0.22733177 -0.15875383
0000e0 62 9c e5 3e 44 55 87 3d 51 d5 c7 be 43 8b 8e 3d
       0.44845873 0.0660806 -0.39029935 0.06960156
0000f0 9e 7a a1 3c 81 23 dd be cf 96 b8 3d 77 2c cd 3e
       0.019711789 -0.4319115 0.090131395 0.40072986
000100 e4 cd 14 3e 98 38 9e 3b 8a 27 bc bd 09 0f df 3d
       0.14531666 0.004828524 -0.09187229 0.108915396
000110 33 3a 43 be 29 9a d9 3e 28 e2 bc 3e 72 90 40 3e
       -0.1906517 0.42500427 0.36891294 0.18805102
000120 1b c4 22 be ef 9c cf be e5 e7 7a be 48 65 d5 3e
       -0.15895121 -0.40549418 -0.24502523 0.41678834
000130 4c 58 d0 be a8 34 d5 be a1 39 60 bd bc 79 16 3e
       -0.40692365 -0.41641736 -0.05474246 0.14694875
000140 08 b8 e1 be a3 d7 d1 be 7b 00 75 3b 75 19 10 be
       -0.44085717 -0.4098483 0.003738432 -0.14072211
000150 69 db 99 3e 26 1f ff 3d 1e 16 ce be dd 1c c9 be
       0.3005021 0.12457113 -0.4025125 -0.39279833
000160 e5 1c 97 3e e4 9f 98 bd 09 dc 45 be e6 38 0c 3e
       0.29514232 -0.07452372 -0.19322218 0.1369358
000170 e4 2f 9d bd 35 0e 53 3e 69 37 e3 3d 83 ab 3a be
       -0.0767515 0.20610888 0.11094553 -0.18229489
000180 5d 45 9d be 7a 7d 79 3e 32 1d 87 be 6b e8 31 bd
       -0.30716982 0.24364272 -0.26389462 -0.04343454
000190 84 46 5d 3d 11 a0 83 be 43 74 71 3e f4 49 a4 be
       0.054022327 -0.25708058 0.23579507 -0.32087672
0001a0 5c b7 e6 3d ab 5e 19 3d 59 bd 27 3e 70 65 dc be
       0.11265442 0.037443798 0.16380824 -0.4304614
0001b0 8f 11 0d 3c 88 91 50 3e 32 c4 94 be 0d 52 bb 3d
       0.008610143 0.20368016 -0.29055935 0.09146509
0001c0 78 68 04 bd 07 86 b8 3e 5a 5c c0 bd b8 9e 89 3c
       -0.03232619 0.36039755 -0.09392615 0.016799316
0001d0 46 cc 4c be b8 a0 e4 bd 62 38 ce 3d 1f 07 db be
       -0.19999799 -0.11163467 0.10069348 -0.4277887
0001e0 4d b7 9d 3e 93 fc a4 3e 8a e8 2a 3e eb ae a1 3e
       0.3080391 0.3222395 0.16690269 0.31578764
0001f0 67 96 c7 bd a5 e5 f6 3d 54 17 de 3c bf 4e 95 be
       -0.09745484 0.1205552 0.027110733 -0.2916164
000200 b4 ad 33 be 91 0e 1c be dd 69 e9 bd 16 33 c9 be
       -0.17546731 -0.15239932 -0.11397145 -0.39296788
000210 4b 14 a0 be d8 10 39 bd 52 7e ac bd 2d f5 c3 be
       -0.31265482 -0.04518208 -0.08422531 -0.38272992
000220 42 94 fc 3d b8 db 72 3e 7c ab bb 3e 5a 2e b9 3e
       0.123329654 0.23716629 0.3665427 0.36168176
000230 92 f2 9d be f2 8b 09 be cd 7f 68 be 0b a1 e3 3d
       -0.3084913 -0.13432291 -0.22705002 0.11114701
000240 19 e7 cd 3d 78 7a ca 3d 85 35 7d 3e 5c 70 72 3e
       0.10053844 0.0988664 0.24727447 0.23675674
000250 46 4d 75 be e8 11 98 3e 59 3d 9e 3e 6e 8b 52 3d
       -0.23955259 0.2970116 0.3090618 0.0514025
000260 cb 51 c0 be bc 8b 86 be e6 01 de 3d 38 0d 0e 3e
       -0.37562403 -0.26278484 0.10840206 0.1387223
000270 e8 bc cc 3e 44 ea 52 3e ec ea 27 3e fb 52 c4 bc
       0.39987874 0.20597178 0.1639821 -0.02396535
000280 b0 72 a7 3e 27 d6 1c be df fd 44 3e 4d 1d 4a be
       0.32704687 -0.15316068 0.19237469 -0.1973774
000290 30 33 2a 3b ff 9e 88 3e 5a ad 3f 3e 0f 49 ec bd
       0.0025970452 0.26683804 0.18718472 -0.11537372
0002a0 ef 3b cc bc a8 62 75 be 0b 20 44 3e 4e 6f 9b 3e
       -0.024930922 -0.23963416 0.19152848 0.30358356
0002b0 85 c3 23 3e 49 65 d3 be 13 ea a2 be 45 72 90 3e
       0.15992554 -0.41288212 -0.3181921 0.2821218
0002c0 e3 17 45 bd 5e 35 8c 3e f3 90 a8 3e 77 8f 0d be
       -0.048118483 0.27384466 0.32923087 -0.13824259
0002d0 3c fd 7a be 1f 03 ce be 1f a0 29 3e a0 12 6f 3e
       -0.24510664 -0.40236756 0.16564988 0.23346949
0002e0 f5 cb b7 bd e6 3e d8 be f1 cc 93 be 9c 80 20 bc
       -0.089744486 -0.42235488 -0.28867295 -0.009796288
0002f0 a1 bb 4f 3e 37 34 15 be 0f 6b 96 be 0d 6f 9e be
       0.20286418 -0.145707 -0.29378554 -0.309441
000300 c9 6a ce 3e 63 42 23 3e 04 a2 ba be d2 4e 8d be
       0.40315846 0.15943293 -0.36451733 -0.27599198
000310 5b eb b8 be d5 d8 52 3d 84 ec 2a be d0 89 0b bc
       -0.36117062 0.05147632 -0.16691786 -0.008516744
000320 30 ca 8d bd 1b 72 c1 be c4 8f c2 be ee ea b0 be
       -0.0692333 -0.37782368 -0.3800031 -0.34554237
000330 b3 51 54 be 4e 23 7a 3d 56 f5 5c be 2b 8d 35 bc
       -0.20734291 0.061068825 -0.21577963 -0.01108102
000340 85 84 c4 bd ea ea c3 3e e4 02 49 be 8f e2 d5 3e
       -0.095955886 0.38265163 -0.19630009 0.41774413
000350 68 93 b0 be 5d 79 ba be ae 0c c6 3d 21 11 86 be
       -0.34487462 -0.36420718 0.09670387 -0.26184943
000360 d3 42 72 3e fd ef 73 be 46 aa b3 3e 08 b5 d2 3e
       0.23658304 -0.23822017 0.35090846 0.4115374
000370 50 bf 5b 3d e5 ac dd 3d f2 00 d3 3e 79 f2 8e 3e
       0.053649247 0.10823993 0.4121166 0.27919367
000380 3b af c1 be 09 a7 cc bc 05 4c cb be fe 72 a2 3e
       -0.37829003 -0.024981992 -0.39706436 0.31728357
000390 8d 1a a4 bd a1 a3 82 bb ec 92 88 be aa 89 71 be
       -0.08012877 -0.0039867912 -0.26674592 -0.23587671
0003a0 a0 f7 84 3d 80 54 bc 3e 91 8e 56 be 8f c2 24 3d
       0.06492543 0.36783218 -0.20952822 0.040224608
0003b0 6d 87 c4 3e 9b 4f c6 3e 53 38 f6 bd 99 06 dc 3e
       0.38384572 0.3873261 -0.12022462 0.42973784
0003c0 d3 fc 2c 3e 54 bc cb 3e 11 7e 08 3c 7d 5a b8 be
       0.1689332 0.3979212 0.008330838 -0.36006537
0003d0 18 ec fb bd 65 aa f4 3d 75 33 82 3e d8 b7 dd be
       -0.12300891 0.11946563 0.25429884 -0.43304324
0003e0 90 be b2 3e e2 02 ca be 1f f4 82 3e e0 9d d8 3e
       0.34911013 -0.39455324 0.25576875 0.4230795
0003f0 eb 9f da 3d 4d 9d bb bd c1 a6 76 3e 56 9c 0d be
       0.10675033 -0.09160862 0.24087049 -0.13829169

model.encoder.transformer_encoder.mhca_layers.0.attn.to_out.0.weight f4 [32, 48]
000000 77 c2 9d 3e 3a b7 87 3e 18 91 1d 3d eb 4f 99 3e
       0.30812427 0.26506978 0.03846845 0.29943785
000010 3a b8 42 3e 2e 9b 82 be 5e cb 33 be f6 6d 62 bb
       0.1901559 -0.25509018 -0.17558047 -0.0034550405
000020 8c f1 6f be 29 52 b7 bd 96 e0 8d 3e 45 72 0e 3e
       -0.23431987 -0.08951218 0.27710408 0.13910778
000030 84 05 9f 3e 37 af 12 3b b3 15 33 be ee 62 88 3e
       0.31058896 0.0022382268 -0.17488746 0.26637977
000040 cf 7f f2 3c d9 12 34 3d 46 91 15 be c5 40 0a 3e
       0.02960196 0.043963287 -0.14606199 0.1350127
000050 4e 26 83 be 2d 17 8f 3e c5 7e 98 3e 7e 47 fd 3d
       -0.25615162 0.2794737 0.29784217 0.12367152
000060 59 e9 85 3e da e6 58 3e 22 87 ea bd 26 1c 9c be
       0.26154593 0.21181813 -0.11451556 -0.30490226
000070 06 f2 30 3d c0 74 57 3e f3 5a 16 bd b3 32 93 3c
       0.04319956 0.2104063 -0.03670783 0.017968511
000080 6e 50 8f 3e 76 0b 00 3e ab 4f 8d 3e cd 6b 56 3d
       0.2799105 0.12504372 0.27599844 0.0523489
000090 c1 79 09 3d 71 41 b8 bd 4d 48 94 bd 87 0f 2b be
       0.03356338 -0.08996857 -0.07240353 -0.16705142
0000a0 03 78 7b 3e 40 3d a6 3e bb e6 0f 3e 5c 5c 2b 3a
       0.245575 0.32468605 0.1405286 0.0006536895
0000b0 6d 60 e7 bd 24 67 b4 be 61 0f 3f bd fa d4 75 be
       -0.11297689 -0.3523494 -0.046645526 -0.24007025
0000c0 2a 2d 8e be b9 c6 65 bd fb 9f a7 bd 22 55 87 3d
       -0.27768832 -0.05609772 -0.08184811 0.06608035
0000d0 78 4d 74 be 46 75 84 3e 3b 53 a6 be 5e 07 2c be
       -0.23857677 0.25870723 -0.32485375 -0.16799685
0000e0 41 eb 09 be 8e ac 37 3d 1a b1 0b 3e c9 31 b9 bd
       -0.13468648 0.044842295 0.13641778 -0.09042699
0000f0 20 42 8d 3d 5f 27 b8 bd 40 f0 11 be 4b 8c 7a bd
       0.06897378 -0.089918844 -0.14251804 -0.06116895
000100 72 e5 63 3d a1 0c a8 be f2 82 82 be ce 6c 8a 3e
       0.055638738 -0.32822135 -0.25490528 0.27036136
000110 d0 12 18 3e 2e 2a af bc 45 6a c3 3c 36 76 46 3d
       0.14850926 -0.021382418 0.023854384 0.04845258
000120 22 5e ad 3d 8c c8 7c be 17 49 d4 bd 53 0b a4 be
       0.0846522 -0.24685878 -0.10365503 -0.3203989
000130 13 ae 90 be b4 37 8a bd 63 da 30 bd 91 ed 8b 3e
       -0.28257808 -0.06748906 -0.04317702 0.27329686
000140 86 58 46 3d cb 44 5f bd aa ed 8f bc a0 ad 4a 3e
       0.048424266 -0.054508965 -0.017569382 0.19792795
000150 a7 50 d9 bd e5 0c 89 bd f8 31 9f bd 1f f6 96 be
       -0.10611086 -0.066919126 -0.07773203 -0.2948465
000160 a0 71 10 bd f4 af aa be b4 fa 4c be ed 81 67 be
       -0.03526461 -0.33337367 -0.2001751 -0.22608157
000170 cb 1f 72 3e d5 f8 a1 be 0b e1 a8 3e ea ce f8 3d
       0.2364494 -0.31635156 0.32984194 0.12148841
000180 bb 74 70 be de e0 97 3e f7 51 9f bd 5b e9 9d be
       -0.23482029 0.29663748 -0.077793054 -0.308421
000190 f0 41 26 bd 56 8f 32 3e 2d 99 aa be 56 e9 bc bc
       -0.040590227 0.17437491 -0.3331999 -0.023060482
0001a0 59 92 05 3e fd 84 07 be 3b a4 e2 3c e4 47 07 be
       0.13044108 -0.13234325 0.027666202 -0.13211018
0001b0 55 15 7c be a4 17 90 3e 5a 18 80 be 4f f3 f4 bc
       -0.24617513 0.28143036 -0.2501858 -0.029901175
0001c0 6e a7 04 3e 4a 8f 4c be a3 37 39 3e a3 10 91 be
       0.12954494 -0.19976535 0.1808763 -0.28333005
0001d0 d0 d7 b0 3e 9b 7c 22 3e 60 74 73 bd d7 95 93 be
       0.34539652 0.15867846 -0.059437156 -0.28825256
0001e0 64 f1 af 3b 38 f0 07 3e 33 2c 3f be 6b ee 46 bd
       0.005369352 0.1327523 -0.18669204 -0.048567217
0001f0 5a b8 af be f0 fa b2 be 14 c4 43 bd 25 4e a0 3e
       -0.34320337 -0.34957075 -0.047794417 0.3130962
000200 66 79 08 bb c0 8b c5 3d 34 eb 22 be fb a4 e6 bd
       -0.0020824312 0.09645796 -0.15910035 -0.11261936
000210 d7 08 2c bd 7d 20 26 be bf 9c 5f 3e e9 91 73 3e
       -0.042000618 -0.16223331 0.21837138 0.23786129
000220 15 f6 96 be 8f 6c d2 3d 60 db 00 be c1 8b 52 be
       -0.2948462 0.10274612 -0.12583685 -0.20561124
000230 72 ff f6 bc c7 4e da bd 2a d3 46 be ca 5f 84 3d
       -0.030151103 -0.10659557 -0.1941649 0.06463583
000240 9d 28 53 3e b7 c2 29 bd d4 40 a3 bc 63 4d 03 3d
       0.20620961 -0.04144546 -0.019928373 0.032056224
000250 80 a7 28 be 9d db 36 3e 4d 96 a9 3e 52 90 24 bd
       -0.16470146 0.17857213 0.33122483 -0.040176697
000260 a9 18 f5 3c 88 9b 8b 3e f9 60 92 3e ac 93 8a be
       0.029918985 0.27267098 0.2858961 -0.2706579
000270 b8 c2 25 be b6 4d ad be 8f b1 5a 3e cd 46 91 3e
       -0.1618756 -0.3384835 0.21356796 0.2837433
000280 da 92 07 be 97 4e c8 3d 3a 1a 8c 3d 28 c2 9b be
       -0.13239613 0.09780615 0.0684094 -0.30421567
000290 15 89 ff 3d 8a 41 48 3e cc a4 ec 3c 57 4b fc 3c
       0.12477318 0.19556251 0.028887175 0.030797644
0002a0 9b 8b bc 3d 30 53 73 3e de 5b 90 3e d0 f7 41 3d
       0.09206315 0.23762202 0.2819509 0.047355473
0002b0 81 8a 12 3e cd f5 d2 bd 2f 8d 58 3e 5c 8f 0a be
       0.14310648 -0.10300789 0.21147607 -0.1353125
0002c0 25 ff 9e be ef 22 2a 3e 03 76 0e 3e a6 23 8b 3d
       -0.31054035 0.16614889 0.13912205 0.06793909
0002d0 bc 1f 2f 3e 87 6d 1e 3d 3c a3 f6 3d b6 00 fe 3d
       0.1710195 0.038678672 0.12042853 0.12402479
0002e0 f2 17 36 be c3 20 49 bc f1 b7 08 3d 50 55 3e bd
       -0.17782572 -0.012275877 0.033378545 -0.04646808
0002f0 30 d7 a2 be 93 a3 49 3d f4 b0 4d 3e a5 bd 51 be
       -0.318048 0.049228262 0.20087034 -0.204825
000300 23 0c a8 3e 21 d4 c3 3d b4 7c 1b 3e df 1f 0e be
       0.3282176 0.09561945 0.15184289 -0.13879345
000310 14 1e 96 be 9a 9e 0a be ce 9b 03 3c b2 f7 27 be
       -0.29319823 -0.13537064 0.008032752 -0.16403082
000320 a1 2f a3 3e 5f d7 5f be 04 9a 78 be e7 3b 00 be
       0.31872275 -0.21859501 -0.24277502 -0.12522851
000330 20 d4 a7 3e f1 25 20 be 98 b6 a6 3e 3b b1 2f 3e
       0.32779026 -0.15639473 0.32561183 0.17157452
000340 e0 1d 9b bd 85 56 35 3e a9 8c 17 3e d0 dd 47 be
       -0.075740576 0.17708786 0.14799751 -0.19518209
000350 10 3d a1 bd 2c ef ae 3e 2e 3a 5a 3e fc 5a 3c be
       -0.07872975 0.3416685 0.21311256 -0.18394083
000360 7a 0b a6 bd 34 22 3e 3e 7b b0 34 3e bc b4 d7 3c
       -0.08107658 0.18567735 0.17645447 0.026331298
000370 10 28 79 be 82 da 8b be 13 b9 80 bd 7c bd f0 3d
       -0.24331689 -0.27315146 -0.062853 0.11754891
000380 53 23 42 bd 6e 7c 98 be a3 af 85 bd 7d 1e ac 3e
       -0.04739697 -0.29782432 -0.06527641 0.3361701
000390 84 dc 95 be f1 5d 8d be bb 9d 66 3e ab 44 b6 3e
       -0.29269803 -0.27610734 0.22521107 0.35599265
0003a0 d5 cc a1 be c3 35 a0 be a6 e4 f9 bd f8 15 b3 3e
       -0.31601587 -0.31291017 -0.12201814 0.34977698
0003b0 7a f0 59 be 61 50 e5 3c ee b8 94 3e 29 02 02 be
       -0.21283141 0.02799243 0.2904734 -0.12696137
0003c0 a3 99 d7 bd 85 96 8e be 75 85 90 3c bb 31 a3 3e
       -0.10527351 -0.27849212 0.017641762 0.3187388
0003d0 ed 4e 1f 3e 44 c6 8a 3e 40 8f 04 bd 70 f6 41 bd
       0.15557452 0.2710439 -0.032363176 -0.04735416
0003e0 b0 cf 81 bd 28 e6 58 3e 87 96 19 bd 8a 57 99 be
       -0.06338441 0.21181548 -0.03749707 -0.299496
0003f0 a5 cd e4 bd f8 33 0f 3e b2 25 ac 3e 7d c6 71 bd
       -0.11172036 0.13984668 0.3362251 -0.059027184

model.encoder.transformer_encoder.mhca_layers.0.attn.to_out.0.bias f4 [32]
000000 9c 14 33 bc c2 ab 21 bc f6 76 65 bb ab b4 95 3b
       -0.010930207 -0.00986761 -0.0035013533 0.0045686564
000010 28 20 8e bc d1 8d fe 39 a1 39 4c bc a1 11 78 bc
       -0.017349318 0.00048552317 -0.012464912 -0.015140922
000020 9d b2 85 3c 84 db 4c 3c dd 62 bc 39 75 49 39 ba
       0.016320521 0.0125035085 0.00035931813 -0.0007068136
000030 15 25 b2 3c 99 e0 8f bc da 70 42 3c 53 0e 0e bc
       0.021746198 -0.017563151 0.011867726 -0.008670407
000040 06 70 6e 3d 4e f4 7d 3b 2c a5 e1 bc 05 d1 cc 3c
       0.058212303 0.0038750353 -0.02754458 0.025002012
000050 f4 7f 03 3d 2a a4 30 bd 4a ae f4 3b d8 50 f7 3c
       0.032104447 -0.04312531 0.007467066 0.030189916
000060 9c 4b 5c 3c d7 04 89 3c 8f 6e b8 bc ef c7 f4 3c
       0.013445761 0.01672594 -0.022513656 0.029880492
000070 e2 64 87 3b 17 52 0c bd 25 c7 23 bd bb 65 e9 ba
       0.004131899 -0.034257974 -0.03998484 -0.0017806807

model.encoder.transformer_encoder.mhca_layers.0.ff_block.0.weight f4 [32, 32]
000000 80 83 20 be eb 13 76 3e c0 d5 4f 3e 4b 9a 5e 3e
       -0.15675163 0.24031036 0.20296383 0.21738546
000010 1e 78 f0 bd 53 0c bd be e7 8e e4 be a9 a6 11 3d
       -0.117416605 -0.36923465 -0.44640276 0.03555933
000020 df cb d2 be 22 23 8e be 4f 94 8e 3e b6 ae 7f bd
       -0.41171166 -0.2776118 0.27847525 -0.062422477
000030 37 98 15 3e e3 97 b2 be e8 15 64 3d 0a 18 cc 3e
       0.14608847 -0.34881505 0.055684954 0.3986209
000040 6b 1f 96 3d 36 01 97 3d 6f f8 90 be 9c 13 9e be
       0.07330211 0.07373278 -0.2831454 -0.30874336
000050 87 17 85 3e 19 75 c1 be dc bb da bc 47 28 ae be
       0.25994512 -0.3778465 -0.026700906 -0.34015104
000060 a9 ce ea 3c 36 51 d2 be 47 1a 02 3e a5 b4 86 3b
       0.028662996 -0.41077584 0.12705337 0.00411089
000070 90 7c 90 be 86 5e 35 be 29 23 24 be 5c e5 49 be
       -0.28220034 -0.17711839 -0.16029038 -0.197164
000080 75 32 9c bd 8e 4e 88 3d 5c 1b 84 be 5d 47 05 3e
       -0.076268114 0.06655608 -0.25802124 0.13015504
000090 52 78 a4 be 18 3d ca 3e 44 da 87 be 6c cd 2f 3e
       -0.32123047 0.39499736 -0.2653371 0.17168206
0000a0 8b 44 98 be 96 13 9d be 26 72 7b bd 85 54 71 be
       -0.29739794 -0.30679005 -0.061388157 -0.23567398
0000b0 da b0 e5 bd e3 e3 1d be bd 10 1e be d7 3f ab be
       -0.112153724 -0.15418963 -0.15436073 -0.33447143
0000c0 1f 2f dc 3e f8 b7 84 3e 8c d7 21 be dc 0b 76 3e
       0.430047 0.25921607 -0.15804881 0.24027961
0000d0 fa 00 23 be 00 9d b4 be b3 4b 14 3e a4 47 0f be
       -0.15918341 -0.35276031 0.14482002 -0.13992172
0000e0 b3 77 93 3e 74 11 cc bd 70 8e cc be 38 65 d4 3e
       0.2880226 -0.099642664 -0.3995242 0.41483474
0000f0 1a d8 51 3d 85 fd fc 3d 50 ba 5c bd df 32 a9 be
       0.05123148 0.123530425 -0.05388862 -0.33046624
000100 5d f1 12 3e 76 14 63 3c 7a 7f 8f be ba a1 8a 3e
       0.14349885 0.013859859 -0.28026944 0.27076513
000110 98 5d cc be 2a b0 87 be 29 08 b7 bd a6 f6 d3 be
       -0.39915156 -0.2650159 -0.08937103 -0.41399115
000120 69 01 d2 be f9 d9 0b be 3f f0 ae bd f0 38 ae 3e
       -0.410167 -0.13657369 -0.08541917 0.34027815
000130 e3 9f 55 3e f8 c2 d5 3e 12 1f 01 3e ec 74 3d 3d
       0.20861773 0.41750312 0.12609509 0.046254084
000140 ec e8 b2 bd 94 32 3c be 67 a1 b7 be 2f cd c9 be
       -0.087358326 -0.18378669 -0.35865328 -0.39414355
000150 fc a9 3f 3e b8 72 8f be 30 28 35 be b1 ee 4c 3e
       0.18717188 -0.2801721 -0.17691112 0.20012929
000160 b2 1c 8d be 9c 5c 0d 3e c1 3f 67 bc be 0c be 3d
       -0.27560955 0.13804859 -0.014114321 0.09279774
000170 74 f8 44 be 06 cc a9 3e 59 33 c6 be f4 92 d0 be
       -0.19235402 0.3316347 -0.3871105 -0.40737116
000180 5d 6d b3 3e 5c 10 9a be a4 48 ce 3e 26 ce 23 3e
       0.35044375 -0.30090606 0.40289795 0.15996608
000190 82 ff 23 3e d5 0b 63 bd 55 67 9d 3d d4 8e f9 3d
       0.16015437 -0.055431206 0.07685725 0.121854454
0001a0 27 ac 48 be 21 a2 a4 3e 7d 94 86 3e 9b fd 4b 3c
       -0.19596921 0.32154945 0.26285163 0.012450601
0001b0 58 27 f4 3d 51 3b 88 bd a4 1d 26 be 1b 2d a7 be
       0.11921567 -0.06651939 -0.16222245 -0.326516
0001c0 2f d8 2d be 68 ff cf be 3d fe 19 be d3 2c 6f 3e
       -0.16976999 -0.40624547 -0.1503839 0.23356943
0001d0 d9 b1 d9 3e ce 7a c8 be 98 bd bc be ee f1 b7 3e
       0.425185 -0.39156193 -0.368634 0.35926765
0001e0 91 90 08 be 7e 19 a8 3c 01 07 8f 3e d3 c1 bf 3e
       -0.13336398 0.020519968 0.2793503 0.37452564
0001f0 67 00 24 3e 25 89 b4 3d 58 48 04 3c 0e a0 ec 3b
       0.16015778 0.08815221 0.008073889 0.0072212284
000200 67 a5 4d 3e a9 87 ce be 9a 2a d8 be ba de 97 3e
       0.20082627 -0.40337875 -0.42220002 0.29662114
000210 77 61 d5 be 2f f7 77 3e 7c 25 9b 3e cf 52 7a 3e
       -0.41675922 0.24215387 0.30302036 0.24445651
000220 a2 05 17 3e 08 b8 72 3d 70 3b 55 3e 87 f3 91 3e
       0.14748242 0.059257537 0.20823455 0.2850611
000230 40 38 37 bb 07 c5 9a be d4 e1 8b 3e 4e bb 7d 3d
       -0.0027957112 -0.30228445 0.2732073 0.061946206
000240 60 5e 7e 3e 5f 7c a8 be 80 a2 fa bd 60 d3 92 be
       0.24840689 -0.32907388 -0.12238026 -0.2867689
000250 d2 9c 04 3b 3b a7 b8 3e 4c b3 aa 3d 11 91 b6 3e
       0.0020235074 0.36065087 0.083349794 0.35657552
000260 3f a0 8d 3e 11 37 9e be ad 0a ca 3e ae e9 b1 3c
       0.2766132 -0.30901387 0.3946127 0.021717872
000270 94 c9 c9 3e e2 a4 8e 3d e4 67 ea bc ed 1d c1 3e
       0.39411604 0.06965043 -0.028613992 0.37718144
000280 b5 f6 91 be e5 dc 82 bc 75 26 9c bd c3 2c 59 bb
       -0.28508535 -0.015974471 -0.076245226 -0.0033138252
000290 e8 b2 0e be 4f cb b7 3e 2f 5f eb bc 27 db 43 3e
       -0.13935435 0.358973 -0.02873191 0.19126569
0002a0 31 27 59 3e 1b 29 d2 3e 5b 03 0d 3e 1d 3b d8 be
       0.21206357 0.41046986 0.13770811 -0.422326
0002b0 ea e1 c2 be a4 b0 d1 be b4 4f e0 be 0c 43 b0 be
       -0.38062984 -0.4095508 -0.4381081 -0.34426153
0002c0 1c 10 b7 bc 48 9c d4 3e 62 06 97 be 2f 04 2b 3e
       -0.022346549 0.41525483 -0.29497057 0.16700815
0002d0 e5 4b 3c be 8a b4 a7 3e 10 db 81 3e 07 62 5e 3e
       -0.18388326 0.32754928 0.25362444 0.21717082
0002e0 48 a7 b9 3e ca 55 a0 be d0 2d c2 be 7d 22 67 be
       0.36260438 -0.31315452 -0.37925577 -0.2257175
0002f0 06 76 bd 3d 50 71 bb 3e 62 45 a9 3e 5d 83 02 3e
       0.09251027 0.36609888 0.33060747 0.12745424
000300 ea 84 fe bd cd 07 83 be b5 47 e2 3e 19 e7 b5 be
       -0.12427695 -0.2559189 0.44195333 -0.35527876
000310 71 44 96 be a9 42 82 3e 83 27 9b 3e 87 d1 01 3e
       -0.29349092 0.25441483 0.30303583 0.12677585
000320 a8 dc 15 bb b8 4a 27 bd 99 72 50 3d 9b ce 34 be
       -0.0022867117 -0.04084274 0.05089054 -0.17656939
000330 97 5a d9 3e 0a 2c d9 3e bf c3 2c be 26 58 9d 3e
       0.42451927 0.42416412 -0.16871546 0.30731314
000340 d3 8e d1 bd b1 20 96 be 4c da 67 3d 3b fe bb bd
       -0.1023232 -0.29321817 0.05660467 -0.0917935
000350 7d 24 b4 3e 89 f2 11 3d ed d8 a5 bd 5d 63 a9 be
       0.35184088 0.03563169 -0.08098016 -0.3308362
000360 84 08 88 3e 39 f2 95 3e 98 c5 ef 3c 9e fe 1e bd
       0.26568997 0.29286364 0.029269025 -0.03881704
000370 56 2b 07 be 25 8b df 3d cf c8 c3 3e 76 76 b2 bd
       -0.13200125 0.109152116 0.38239142 -0.08714001
000380 a8 a8 f1 3c e7 ee dc be 6a d9 c7 3d 3f d2 28 be
       0.029499367 -0.43151018 0.09758265 -0.16486453
000390 5e f2 9f bd d9 29 82 be 84 7c c6 3e e5 ae a2 3e
       -0.078099 -0.25422552 0.38766873 0.3177406
0003a0 c2 0e 28 be 07 c8 c3 bd f3 7a 0c 3e b5 c8 0e 3e
       -0.1641188 -0.095596366 0.13718776 0.13943751
0003b0 5f 54 5f be bd 26 2d 3e 89 30 a1 3d af c9 84 3e
       -0.21809529 0.16909309 0.078705855 0.25935122
0003c0 c3 5c 73 be 68 e5 93 be f5 2f 3c 3e 22 d1 c1 3c
       -0.23765855 -0.2888596 0.18377669 0.023659293
0003d0 94 42 47 be 21 c9 b6 3e 40 55 6f bd 1e 84 94 be
       -0.19458991 0.35700324 -0.05843091 -0.29007047
0003e0 17 39 56 bd 24 30 3b be 5b a2 29 be cc 5b b5 be
       -0.05230054 -0.18280083 -0.1656584 -0.35421598
0003f0 90 e6 a1 3e d8 3e bc 3e 7d 3d b4 be b7 2d 94 3e
       0.31621218 0.36766696 -0.35203162 0.28941128

model.encoder.transformer_encoder.mhca_layers.0.ff_block.0.bias f4 [32]
000000 37 bb d3 bb 0f e8 16 3b c5 19 ae 3b ed 13 4c ba
       -0.0064615267 0.0023026501 0.0053131306 -0.00077849516
000010 0b 6f 3e bc e1 ae 41 bc 18 f4 b1 bc ca 6f 29 bc
       -0.011623154 -0.01182148 -0.021722838 -0.010341594
000020 ee 12 e0 bb fb 38 b3 3b 3b 0d 99 bc 07 e3 3b 3c
       -0.006838194 0.005469439 -0.018683067 0.011467702
000030 1c 58 43 bc 25 07 ea 3a 1e 6d ec 3a 5f d6 4a 3b
       -0.011922862 0.0017854912 0.001803789 0.003095053
000040 fb 3d 5a bc 19 99 4f 3c cc e4 07 3c 5f f1 01 bc
       -0.013320441 0.012670779 0.0082942955 -0.0079310825
000050 2c c5 01 bc 9e 27 d0 3a 66 a4 74 bb 5f fe 61 bc
       -0.007920545 0.0015880947 -0.0037329434 -0.013793557
000060 49 9e 99 bb 8c f5 d7 bb f3 c7 8e 39 1f 1c b3 ba
       -0.0046880585 -0.0065905508 0.00027233324 -0.0013664997
000070 d0 e9 85 3b 7c 5f 16 bc cd 52 c1 39 e2 be d0 3c
       0.0040867105 -0.009178039 0.0003687352 0.025481645

model.encoder.transformer_encoder.mhca_layers.0.ff_block.3.weight f4 [32, 32]
000000 92 04 cb be eb da 4c bd 51 dc 96 3d ec 31 ec 3d
       -0.39651924 -0.050013464 0.07366241 0.11532959
000010 8e 4f b8 3e 7b dd 59 3d fe 62 2c bd 66 cd b5 3e
       0.35998195 0.053189736 -0.042086594 0.3550827
000020 7d 5d 8b bd 9a 48 1f 3e c7 52 a2 be 33 8a 0e be
       -0.06804941 0.15555039 -0.3170378 -0.13919906
000030 2f 14 a1 be 13 6e 5c 3d e5 c9 a6 be 25 75 af 3e
       -0.3146071 0.053815912 -0.32575908 0.34269062
000040 ec 5d 40 be 43 f3 a2 be d9 c6 12 bc c9 2b 27 be
       -0.18785828 -0.3182622 -0.008958542 -0.16325296
000050 1f aa 81 be d3 c7 a7 3e 71 d6 30 3e 07 93 8c 3d
       -0.25325105 0.3276964 0.17269303 0.06863981
000060 69 81 46 3e 09 78 18 be 65 b2 57 3d 6b 1b d2 3e
       0.19385304 -0.1488954 0.052660365 0.41036543
000070 d2 cf 3a be 6d ea 17 3e 2c 5d b5 3e c5 26 04 3b
       -0.1824334 0.1483552 0.35422647 0.002016471
000080 47 7d b9 3e 66 b1 d3 bd e0 ec b1 bd 5d 04 ee 3d
       0.36228392 -0.103365704 -0.086877584 0.11621926
000090 a5 a4 62 bd 84 e0 f5 bd b3 08 7b bd 9d cf dd 3d
       -0.0553328 -0.120057136 -0.061287593 0.10830615
0000a0 c8 76 74 be de 5c a2 be 95 c6 a6 be 54 cf dd 3e
       -0.23873436 -0.31711477 -0.3257338 0.4332224
0000b0 86 65 0a 3d 5e 79 56 3e 8c 66 d3 be 80 04 31 bd
       0.033788227 0.20944735 -0.41289175 -0.043217182
0000c0 26 bc 9f be d5 3e 10 bd cd 16 c2 3e e4 40 98 3e
       -0.31198233 -0.03521617 0.3790802 0.29737008
0000d0 91 f8 18 be 10 f8 6f be 0f a7 b1 be 4c 0b 51 be
       -0.1493857 -0.23434472 -0.34697768 -0.20414466
0000e0 c9 f5 1f 3e f2 26 83 be be e7 61 3e c1 12 1a be
       0.15621103 -0.2561565 0.22061059 -0.15046217
0000f0 f4 e2 cb 3e 7d 98 c0 bd 97 df 96 bd 9d 36 a4 3e
       0.3982159 -0.09404085 -0.07366865 0.32072917
000100 57 75 99 3e 98 10 9d 3e e6 df aa 3e 63 55 d0 be
       0.29972336 0.30676723 0.33373946 -0.40690145
000110 78 26 66 3e 6a bf 73 be 7f f6 95 3e 2d 15 8c 3e
       0.22475612 -0.23803487 0.29289624 0.27359906
000120 f7 37 5d bd 08 1a 00 3e 83 7d 8d 3d 32 dc 3c 3e
       -0.05400845 0.1250993 0.06908705 0.18443373
000130 f3 b4 98 3e 7b 52 d3 3d c7 7e 17 be 8f 20 09 3c
       0.29825553 0.10318466 -0.14794455 0.008369579
000140 1c 3e 07 3d 44 2e b0 be 86 1c 61 3e c5 7e 9c be
       0.033018216 -0.34410298 0.21983537 -0.30565467
000150 2c f2 80 3e 87 2e c9 3e 35 45 0d 3d ef 1b ad 3e
       0.25184762 0.3929331 0.03448983 0.33810374
000160 cb 02 48 3c 43 9c 8c 3e b8 09 1e 3e 14 21 b2 be
       0.012207697 0.27462968 0.15433395 -0.34790862
000170 3f 26 b5 be ec 36 9f bd 7d 0d 34 3e d1 05 c9 bd
       -0.35380742 -0.077741474 0.1758327 -0.098155625
000180 f9 fa b0 bd 12 66 84 3e 55 58 c8 3e 61 3c 37 3e
       -0.08641619 0.25859123 0.39129892 0.17894126
000190 26 e6 df 3d fc 6e 5b 3e c1 13 71 3d df 08 cd be
       0.10932569 0.21429056 0.05885673 -0.4004583
0001a0 6b f2 da be 1d 50 c9 be 64 84 c5 be 1d d6 a0 3e
       -0.42763075 -0.39318934 -0.3857757 0.31413355
0001b0 6e 82 22 bd 2b 3d 9a be b0 88 d3 3d 0e 11 68 3c
       -0.03967517 -0.30124792 0.103288054 0.014164222
0001c0 ca 0b 85 be 88 46 cd be c0 77 27 3e f3 f6 14 bc
       -0.25985557 -0.40092874 0.16354275 -0.00909208
0001d0 66 df 1f be ca d0 7c be d5 c1 ff bd 55 26 ba 3e
       -0.15612563 -0.24689022 -0.124881424 0.3635737
0001e0 4a fd a6 be f9 b4 30 be 74 37 12 be ee b4 c4 3e
       -0.3261512 -0.17256536 -0.14278966 0.38419288
0001f0 2e c4 c9 3c 4a cc 9b 3e 3a b9 39 bd 40 04 6f bd
       0.024629679 0.30429298 -0.04534266 -0.058353662
000200 f3 a2 74 3e 4e 03 29 be c0 6d 86 3e 1b be bf 3e
       0.23890285 -0.16505167 0.26255608 0.37449726
000210 ed 99 34 3e 8e 79 91 3e 1e f5 a4 be 53 13 cb 3e
       0.17636843 0.2841305 -0.3221826 0.3966318
000220 92 0a 81 be f1 2c 80 3e f1 b6 09 3e 62 79 9f 3c
       -0.25203377 0.25034288 0.13448693 0.01946706
000230 34 61 a2 3d a2 2a d8 be 69 e6 d3 3e 4c 87 29 bd
       0.07928696 -0.42220026 0.41386726 -0.041388795
000240 a3 4b cb 3e e3 16 10 bc 34 15 58 be 68 a8 89 3e
       0.39706144 -0.008794519 -0.21101838 0.26886296
000250 da 72 62 bc 34 8a 8b be f3 36 6a 3d 12 12 d6 be
       -0.013821328 -0.27253878 0.05718131 -0.41810662
000260 33 76 8b be 3a 8a af be 67 01 64 3d a5 c6 72 be
       -0.27238616 -0.34285146 0.0556654 -0.2370859
000270 90 87 27 ba 41 27 b3 be e7 63 bf be aa d1 47 bd
       -0.0006390745 -0.34990886 -0.37380907 -0.048783936
000280 d6 ba 73 3d c9 f3 9b 3e 06 3b 28 be ed 80 d4 3e
       0.059504353 0.3045943 -0.16428766 0.41504613
000290 bc 50 a9 be f1 b2 20 3e 73 45 c0 be 53 0e bc 3e
       -0.33069408 0.1569326 -0.37552986 0.3672968
0002a0 64 27 24 be 77 e5 7a 3e d7 cc 1f 3d 3b c4 25 be
       -0.16030651 0.24501596 0.03901371 -0.16188137
0002b0 36 7f d1 bd 23 0b 2a be df 5d 81 3e a0 65 a0 3e
       -0.10229342 -0.16605811 0.2526693 0.31327534
0002c0 2a df d1 3e 61 b8 ba bd 5e 06 4f be 52 a1 61 be
       0.40990573 -0.09117199 -0.20217273 -0.22034195
0002d0 f9 98 0f bd cb 44 d5 3d fc 1a c4 bc 05 f4 9c be
       -0.035057995 0.10413512 -0.023938648 -0.30654922
0002e0 f7 da bb 3c 66 f7 c7 3b 3c 8a bc be 5c 4d ee bd
       0.022931559 0.0061024902 -0.36824214 -0.11635849
0002f0 85 4c b0 bc 73 e0 e2 be f7 4a 81 3d 92 ee 1f 3e
       -0.021520862 -0.44311866 0.063131265 0.15618351
000300 70 a0 e8 bc b5 68 84 bd 40 be ba 3b 55 0e ef 3d
       -0.028396815 -0.06465284 0.005698949 0.116726555
000310 a4 8b 3a be 83 16 46 bd 42 f7 6f 3e 80 0e 41 be
       -0.18217331 -0.048361313 0.23434165 -0.18853188
000320 db 37 29 bc db 9e d1 be ce 1f af be 0f 65 90 bd
       -0.010328258 -0.4094151 -0.34203953 -0.070505254
000330 54 b1 18 be 9a 7d d4 3e e1 b5 dd bd 8f 33 b0 be
       -0.14911395 0.41502076 -0.10825706 -0.34414336
000340 c1 fd be 3e ce b5 a1 be 44 d9 8c 3e f1 ad 83 bd
       0.37302974 -0.31584018 0.2750951 -0.06429661
000350 0a 0b a4 3d 17 5f dc be fe bd b9 3e 9c c2 9a ba
       0.08009918 -0.43041298 0.36277765 -0.0011807266
000360 18 1f 64 be 03 62 9e be 6f 4c f2 3d e4 4f d5 be
       -0.22277486 -0.30934152 0.11830985 -0.41662514
000370 3e 08 a3 3e 12 e1 56 3e c9 fd be 3e 4c 0e c3 3e
       0.31842226 0.20984295 0.37302998 0.38096845
000380 03 ca 84 be d0 a8 ee bd e6 4c 83 3e 92 e6 8e 3e
       -0.25935373 -0.11653292 0.25644606 0.27910286
000390 6e 4f d9 3e 73 1a 33 be 9f 3d 80 3d 64 1e ad 3c
       0.42443413 -0.17490558 0.06261753 0.021132655
0003a0 81 0e 76 3e 75 64 42 be 33 26 c8 3e 39 88 e0 bd
       0.2402897 -0.18983634 0.39091644 -0.109634824
0003b0 dd fa 69 3e fc 92 ab 3e 70 03 e1 be 7a 3a b8 3d
       0.22849603 0.33510578 -0.43947935 0.089955285
0003c0 dc 82 97 be 8e 73 47 3e 99 1b c9 3e 17 48 1a be
       -0.29592025 0.19477674 0.39278868 -0.15066563
0003d0 65 99 96 be 8f ec 63 be 05 11 ba 3e 74 62 85 bd
       -0.29413906 -0.22258209 0.3634111 -0.06512919
0003e0 48 55 ad be 00 8a b4 3e 9b 6c 93 3e 56 91 5f bd
       -0.33854127 0.35261536 0.28793797 -0.054581963
0003f0 78 c1 34 3d 89 39 47 3d a9 e5 d1 3e 4f bb 79 3e
       0.04412982 0.048638854 0.4099553 0.24387859

model.encoder.transformer_encoder.mhca_layers.0.ff_block.3.bias f4 [32]
000000 23 19 85 3b 0e 99 01 3c 06 2f 17 bc 08 f4 d3 3a
       0.0040618344 0.007910026 -0.00922752 0.001617075
000010 62 a9 10 3b 64 d2 9e ba f2 a7 c3 bb 30 2e 26 bb
       0.0022073616 -0.0012117145 -0.0059709484 -0.002535712
000020 2a 0a 39 3b d1 d9 d4 3a 78 6b f6 3b f8 56 30 bb
       0.0028234818 0.0016239231 0.0075201355 -0.0026907306
000030 53 6c f8 3a 8a 12 7c bb fc 1e a8 3b 33 6e c5 3a
       0.0018953182 -0.0038463199 0.0051306468 0.0015062749
000040 91 1f eb 3b 9a 03 15 3c f2 5f c8 bb 17 62 d6 3a
       0.007175394 0.009095097 -0.006114953 0.0016356137
000050 d1 f8 c1 bb 63 37 94 bb 7b e0 03 3b ce 2b 52 bb
       -0.005919554 -0.004523204 0.0020122814 -0.0032069567
000060 44 be bf bb ad c5 76 3b da 7e e7 3b 0c 35 55 bc
       -0.005851539 0.0037654445 0.0070646824 -0.013013136
000070 f4 7d a8 39 87 26 8e 3b b8 62 45 3a e4 32 f6 39
       0.000321373 0.004338089 0.0007529664 0.00046958693

model.encoder.transformer_encoder.mhca_layers.0.norm1.weight f4 [32]
000000 34 54 7b 3f 07 d8 7d 3f 6d ab 80 3f 62 18 80 3f
       0.9817536 0.99157757 1.0052315 1.0007441
000010 06 87 7e 3f 21 75 80 3f 81 15 79 3f 88 ca 81 3f
       0.9942478 1.0035745 0.9729844 1.0139933
000020 f0 81 81 3f 0c 2b 7e 3f 97 63 80 3f 53 37 7c 3f
       1.0117779 0.99284434 1.0030392 0.9852192
000030 e7 c3 7f 3f 1c 2c 80 3f f9 68 80 3f f6 f1 80 3f
       0.999083 1.0013461 1.0032035 1.0073841
000040 9f 97 80 3f fb f4 7b 3f 04 1d 78 3f 04 e3 7d 3f
       1.0046271 0.98420686 0.96919274 0.99174523
000050 dc 6e 82 3f da 7d 7f 3f 4f 09 7e 3f 2d 19 7f 3f
       1.0190082 0.9980141 0.99232954 0.9964779
000060 4b 8a 7f 3f 56 18 78 3f e4 11 83 3f b3 7a 82 3f
       0.99820393 0.96912134 1.0239835 1.0193695
000070 c9 17 82 3f 04 99 80 3f 89 36 80 3f 3e f7 80 3f
       1.0163509 1.0046697 1.0016643 1.0075452

model.encoder.transformer_encoder.mhca_layers.0.norm1.bias f4 [32]
000000 0b 26 c0 bb bc 0a e9 3b bf 14 fc bb fa d7 b0 3b
       -0.00586391 0.0071118753 -0.007692903 0.00539684
000010 89 8a bd 3b 49 d9 85 bb 80 a6 a3 bb cf 06 1d bc
       0.005784337 -0.0040847403 -0.0049942136 -0.009584143
000020 18 a7 1a bb f7 85 10 3b 66 f3 80 3a d4 c3 1d 3b
       -0.002359813 0.0022052506 0.0009838163 0.0024073021
000030 bf ba c1 bb 1d c0 04 3b 20 49 a0 ba 71 5d 10 bb
       -0.0059121544 0.002025611 -0.0012228824 -0.0022028352
000040 b6 ec 6b b9 9d f7 31 3c 71 d4 21 bc 00 06 52 ba
       -0.00022499528 0.010862258 -0.00987731 -0.00080117583
000050 36 51 03 bc fc 98 ac bc ea 69 b3 3b 15 87 66 b9
       -0.008014968 -0.021069042 0.0054752724 -0.00021984831
000060 14 8e 93 3a cb 85 32 3c 0e 9e d0 3a e7 73 d7 bb
       0.0011257553 0.010896157 0.0015916245 -0.006575096
000070 1a cf e9 b9 29 2d b7 3b b8 d1 b2 bb c4 69 21 3a
       -0.00044595526 0.0055901003 -0.0054571293 0.0006157423

model.encoder.transformer_encoder.mhca_layers.0.norm2.weight f4 [32]
000000 96 ed 79 3f 3e 93 7e 3f 47 cd 7b 3f 55 79 7d 3f
       0.9762815 0.99443424 0.98360103 0.99013263
000010 5c 7c 7c 3f 07 b4 80 3f bd 33 7c 3f 1d e9 81 3f
       0.9862726 1.005494 0.98516446 1.0149266
000020 7d f4 80 3f 8a 91 7c 3f 40 7c 80 3f bf b5 7f 3f
       1.0074612 0.98659575 1.0037918 0.998867
000030 90 ef 7f 3f b4 12 81 3f 77 9b 84 3f f5 2d 81 3f
       0.9997492 1.0083833 1.0359944 1.009215
000040 ae 07 81 3f c1 87 80 3f b7 28 79 3f 2a 17 7d 3f
       1.0080469 1.0041429 0.9732775 0.9886347
000050 42 b0 80 3f aa 4d 83 3f 7f fc 7c 3f b7 1e 7f 3f
       1.005379 1.0258076 0.9882278 0.9965624
000060 da ed 7f 3f 5d ab 83 3f 42 28 80 3f 6f 9c 80 3f
       0.9997231 1.0286671 1.0012286 1.004774
000070 bb d3 81 3f 63 11 7e 3f c2 38 81 3f e6 11 81 3f
       1.014274 0.9924528 1.0095446 1.0083587

model.encoder.transformer_encoder.mhca_layers.0.norm2.bias f4 [32]
000000 83 d7 e4 3b 5f 84 2d 3c e8 03 11 bc 3c 64 bd b9
       0.006983699 0.010590642 -0.008851029 -0.0003612357
000010 4c 66 4f 3b 05 f6 78 3b 7f d5 3f bb 09 f9 7a 3b
       0.0031646667 0.0037988436 -0.002927154 0.003829541
000020 bf 72 8b 3a b8 35 a0 3b ad dd 68 3b 4d 17 03 ba
       0.0010639055 0.0048892163 0.003553252 -0.00050007255
000030 24 60 36 bb 08 57 25 bb 11 53 9c 3a 54 24 0b 3c
       -0.00278283 -0.0025228877 0.0011926611 0.008492548
000040 b6 81 a0 3b d7 52 fe 3b b8 26 d0 3a 0b 14 42 3a
       0.0048982752 0.00776134 0.001588068 0.00074034993
000050 f7 9a 0e bb 54 85 a8 bb bd 7c 46 3b e6 20 b0 ba
       -0.0021759847 -0.005142847 0.0030286752 -0.0013437539
000060 d8 fb cd ba 5f 0d 5b 3b c6 d1 f2 3b 38 17 73 bc
       -0.0015715314 0.0033424718 0.007410261 -0.014837079
000070 d6 ad de 3a 4c fa a3 3b dd 16 64 3b 98 4e ec 3a
       0.0016989063 0.005004203 0.0034803667 0.0018028794
