checkpoints/epoch=0-step=1000.ckpt (torch, 435472 bytes, 192 tensors)

model.encoder.transformer_encoder.mhca_layers.0.attn.to_q.weight f4 [48, 32]
-0.020812577 0.2178321 -0.351279 -0.32010305 -0.1645278 0.1274061 -0.03764515 0.33970615
-0.008193575 0.15772347 -0.12504591 -0.09233636 -0.40764675 -0.27744895 -0.15513137 0.022595553
0.19296733 0.26652858 -0.2871067 -0.196626 0.16745715 0.37392685 -0.113510944 0.3351212
-0.10405008 0.010758945 0.40877655 -0.38949007 -0.2635793 -0.13503747 -0.16516538 0.3487346
-0.24702935 -0.19936845 -0.28991652 -0.40060332 -0.23535132 0.37295023 0.1720779 0.2089618
0.012463137 -0.2554889 0.06560088 -0.39934972 -0.3080591 -0.21735361 0.28588912 0.23281637
-0.19253905 -0.011248991 0.28415295 0.41976637 0.17047368 0.06442275 0.300066 -0.25061384
0.08701778 -0.3028487 -0.32913926 -0.21123122 0.19080743 0.17044477 -0.26731405 0.13659199
0.20389694 -0.04780322 0.03287335 0.08608377 0.24637493 0.41371873 -0.29848558 -0.15940064
0.17742021 0.36980534 0.3774815 0.37337935 0.06473861 -0.37301075 0.023015931 -0.25766832
-0.41418618 0.38757363 0.31572154 -0.42269748 0.08223021 -0.08364696 -0.08296518 -0.20751277
0.15455763 -0.29635587 0.19773667 0.20952815 0.31628808 0.17271759 -0.4131483 -0.27564454
0.20409669 0.08648405 -0.33500543 -0.24832474 0.41174528 0.2920023 -0.20104626 -0.11686356
-0.39078793 -0.021235138 -0.32319257 -0.32836205 -0.006746002 0.075018935 -0.168293 0.23353943
-0.24273258 0.40554276 0.3086063 -0.3839964 -0.10407717 0.046848137 0.0535548 0.109091684
0.14261743 0.01389077 -0.20257969 0.21873492 -0.409678 -0.28290817 -0.118604176 -0.23232484
-0.16120166 -0.3552892 -0.06336007 0.11699059 -0.26577297 0.012691757 0.3260208 -0.044814475
0.01496883 -0.03994526 0.04653525 0.30283868 0.42246655 0.29208097 0.41635266 -0.04993943
-0.38534304 -0.18131906 0.31773958 -0.029425211 -0.1746114 -0.30309904 -0.40308967 -0.33480063
-0.107308835 0.21718712 0.25146523 -0.3891825 0.24023104 -0.34171718 -0.1193517 -0.19166775
-0.06704543 -0.086451665 -0.36896938 -0.36355022 -0.055171244 0.015041252 -0.2140648 0.1597441
-0.40073565 -0.029935712 0.37058774 -0.16596812 0.39595482 0.16522941 -0.383666 0.2635215
-0.052850213 -0.18833089 0.3538136 -0.35317394 0.053411976 -0.09173798 0.31664005 0.12917289
0.21334659 0.17030074 -0.12399808 -0.08519832 -0.36850792 0.22777428 0.3344954 0.29386136
-0.325604 0.023323162 -0.32472226 -0.25158924 -0.27180254 0.13864143 -0.2356548 -0.015156957
0.042674314 0.28325143 -0.31899273 -0.31010762 -0.25725868 0.29836398 -0.16683201 0.3725071
0.16106138 0.050921783 -0.013317105 -0.08015025 0.04976289 -0.09824751 -0.023503548 0.043346588
-0.35642713 -0.2548848 0.37998736 -0.35930428 -0.017870326 0.43257073 0.17095512 0.011727963
-0.35663742 0.2191153 -0.29126233 -0.13457069 -0.14566597 -0.06990244 0.0070801736 0.35441193
0.0581816 0.3507027 0.25556925 -0.27917436 0.19648021 -0.30674875 -0.1728666 0.10537845
0.14420027 0.32501543 -0.14140409 -0.0054222634 0.22687523 -0.41635892 0.3167488 -0.35828245
-0.0017091236 -0.057161562 -0.23993246 0.061404254 0.35146046 -0.12673518 -0.2545785 -0.15859804
00000000: 237f aabc 610f 5f3e d7da b3be 8ce4 a3be
00000010: fa79 28be bf76 023e cd31 1abd f7ed ad3e
00000020: 583e 06bc 4382 213e 090c 00be d81a bdbd
00000030: 13b7 d0be ca0d 8ebe c2da 1ebe 4f1a b93c
00000040: 3a99 453e 6f76 883e a6ff 92be 5358 49be
00000050: e379 2b3e 5773 bf3e 6d78 e8bd 0295 ab3e
00000060: 3518 d5bd 4946 303c 294b d13e 3e6b c7be
00000070: def3 86be 4347 0abe 1d21 29be 578d b23e
00000080: 43f5 7cbe 3e27 4cbe f06f 94be e11b cdbe
00000090: f0ff 70be 55f3 be3e 3035 303e 15fa 553e
000000a0: 2f32 4c3c 71cf 82be c159 863d 9177 ccbe
000000b0: ecb9 9dbe f291 5ebe 0f60 923e 6a67 6e3e
000000c0: f528 45be b04d 38bc 7f7c 913e 9eeb d63e
000000d0: a790 2e3e 13f0 833d 40a2 993e 7550 80be
000000e0: 6136 b23d fc0e 9bbe f184 a8be ff4c 58be
000000f0: 0663 433e 1389 2e3e 63dd 88be c5de 0b3e
00000100: 5cca 503e 4fcd 43bd 35a6 063d b04c b03d
00000110: b649 7c3e f1d2 d33e 1ad3 98be ec39 23be
00000120: a5ad 353e 2057 bd3e 4145 c13e 942b bf3e
00000130: ad95 843d 44fb bebe e88b bc3c 1aed 83be
00000140: 3610 d4be 0d70 c63e 41a6 a13e ce6b d8be
00000150: 5068 a83d 194f abbd a6e9 a9bd 3a7e 54be
00000160: 5b44 1e3e f5bb 97be 7b7b 4a3e 8c8e 563e
00000170: 83f0 a13e e1dc 303e 2d88 d3be 4821 8dbe
00000180: b9fe 503e 8d1e b13d d585 abbe d748 7ebe
00000190: 47d0 d23e 5381 953e 12df 4dbe 2a56 efbd
000001a0: 5b15 c8be 50f5 adbc 7f79 a5be 121f a8be
000001b0: 910d ddbb 87a3 993d 0055 2cbe f624 6f3e
000001c0: e48e 78be 4da3 cf3e a501 9e3e 2d9b c4be
000001d0: 6926 d5bd d5e3 3f3d 475c 5b3d 766b df3d
000001e0: 4e0a 123e 1d96 633c 0d71 4fbe 0cfc 5f3e
000001f0: 51c1 d1be 57d9 90be bfe6 f2bd 90e6 6dbe
00000200: 0c12 25be 77e8 b5be edc2 81bd c398 ef3d
00000210: 6513 88be 16f1 4f3c 33ec a63e 628f 37bd
00000220: d33f 753c a49d 23bd bf9b 3e3d ac0d 9b3e
00000230: 894d d83e a38b 953e 2d2c d53e 4a8d 4cbd
00000240: af4b c5be b4ab 39be c3ae a23e 240d f1bc
00000250: 55cd 32be cc2f 9bbe c561 cebe fd6a abbe
00000260: bcc4 dbbd 4d66 5e3e 0dc0 803e ee42 c7be
00000270: 20ff 753e 8ef5 aebe aa6e f4bd 8d44 44be
00000280: 1d4f 89bd 920d b1bd 8ee9 bcbe 4123 babe
00000290: 3efb 61bd 956f 763c ce33 5bbe f593 233e
000002a0: 392d cdbe bd3b f5bc adbd bd3e 8cf3 29be
000002b0: 97ba ca3e e631 293e df6f c4be 4aec 863e
000002c0: 7779 58bd d0d9 40be 0e27 b53e 37d3 b4be
000002d0: 84c6 5a3d 1fe1 bbbd a51e a23e e645 043e
000002e0: 8777 5a3e 5163 2e3e b5f2 fdbd 757c aebd
000002f0: 12ad bcbe a93d 693e fb42 ab3e ff74 963e
00000300: 91b5 a6be 3710 bf3c ff41 a6be 4ed0 80be
00000310: b429 8bbe 05f8 0d3e 7e4f 71be e354 78bc
00000320: 43cb 2e3d 5506 913e 0453 a3be 6dc6 9ebe
00000330: 69b7 83be 2ac3 983e 03d6 2abe 40b9 be3e
00000340: 46ed 243e 5c93 503d fd2f 5abc d025 a4bd
00000350: 2cd4 4b3d fe35 c9bd 838a c0bc 318c 313d
00000360: 9e7d b6be 4380 82be b48d c23e bbf6 b7be
00000370: ca64 92bc e979 dd3e dc0e 2f3e a426 403c
00000380: 2e99 b6be c35f 603e 5620 95be e6cc 09be
00000390: 7629 15be 0329 8fbd cd00 e83b 7b75 b53e
000003a0: d44f 6e3d 4e8f b33e f9d9 823e f1ef 8ebe
000003b0: 1c32 493e 2c0e 9dbe f103 31be a8d0 d73d
000003c0: 3ca9 133e 6c68 a63e 3ccc 10be 3ead b1bb
000003d0: fb51 683e ff2c d5be e62c a23e cc70 b7be
000003e0: ac04 e0ba 3e22 6abd dbb0 75be 0783 7b3d
000003f0: a0f2 b33e dec6 01be 1d58 82be 8667 22be

model.encoder.transformer_encoder.mhca_layers.0.attn.to_k.weight f4 [48, 32]
-0.14500529 0.13588522 0.21787913 -0.03064662 0.42575818 -0.31040743 0.2092471 0.3698724
-0.10770203 0.3494394 -0.010067685 -0.30733907 -0.26007026 0.17482859 -0.19064994 0.06843616
0.4095863 0.17210712 -0.01723636 0.0893128 -0.24166779 -0.37272134 -0.34778154 -0.34909016
0.06178806 0.07583708 -0.16554065 -0.4066039 0.2518862 -0.2248391 -0.08079211 -0.34342745
-0.24158989 0.17833485 -0.41942316 -0.21297815 0.3214043 -0.18987218 -0.15688145 -0.12674096
0.16051951 -0.2707093 0.018798077 0.20931645 -0.031083973 0.100484595 -0.36233595 0.18409416
0.16496468 -0.038215276 -0.3531256 0.16313945 0.28625405 -0.084067374 0.22527294 0.16817081
-0.10117064 -0.034468755 0.42715532 -0.010246328 -0.34865236 -0.008752517 0.19330359 -0.1525411
-0.21877934 0.35888535 0.2489698 -0.113854945 0.032900594 -0.08485593 0.06347696 0.014428595
-0.2456795 0.07678463 0.0373272 -0.0025630977 -0.17120536 0.08416142 -0.31102812 0.13296708
0.23453927 -0.070816904 -0.3386045 0.0010574536 -0.01574571 -0.37229216 -0.3356747 0.3896818
0.24926376 0.24100655 0.3062885 0.17436193 0.26260376 0.25862283 -0.08348747 -0.035134714
0.30725753 0.0074454974 -0.26924753 -0.36442685 0.24229726 0.33231696 0.3173672 0.07329004
0.31377527 -0.40378746 -0.29547304 -0.4467401 0.34623152 -0.023097778 -0.1714051 0.14595535
-0.16367765 -0.2962784 0.16181591 0.08165717 -0.30836263 -0.274818 0.17746004 0.31834826
-0.052870214 -0.21707079 0.21282136 0.08783155 -0.37143382 -0.30079302 0.11741348 0.28530258
-0.124327 0.21506709 -0.2580812 0.42839855 0.31591392 0.08445589 0.1413499 0.1553498
-0.25305727 -0.010700218 0.121088944 -0.080400795 0.42309347 -0.15488043 -0.38167205 -0.20345703
-0.3981093 0.34170172 -0.19621477 -0.31790847 -0.06188859 -0.29271933 -0.20840354 0.2217415
-0.27700964 0.21705766 0.3009724 -0.00992778 0.18910706 -0.25108048 0.3174691 0.4177855
0.10045398 0.40280285 -0.43846014 -0.00311707 0.07035745 -0.32316083 0.21568885 -0.16378929
-0.16004817 -0.34761336 0.13517208 -0.26979306 -0.073265366 0.229832 0.2850546 0.081139974
-0.15265726 -0.1692319 0.23856205 0.06728956 0.3908381 0.18105961 0.39015007 -0.3309864
0.39463377 -0.18837999 -0.13944875 0.00087570015 -0.10810442 0.09591174 0.36306804 -0.28616896
0.12429112 -0.38153052 0.029949624 0.3457829 0.31452346 0.38228846 0.3211917 -0.073018186
0.070477284 -0.1431507 0.3572149 0.23737185 -0.35742077 0.3693301 -0.015136341 -0.020864693
-0.12601097 -0.07363511 0.058072057 -0.20815904 -0.4196523 -0.26824567 -0.11381708 0.3447711
0.38183576 -0.29009724 0.015795454 -0.1261551 -0.18320529 -0.02345545 -0.1710285 0.23402303
-0.20201157 0.054091927 -0.2458262 -0.13948897 0.35134003 -0.21103545 -0.041939225 0.40324256
0.14240538 -0.21344435 -0.25553185 -0.12358577 -0.14171095 0.18281509 -0.10153527 0.36709362
-0.24055973 -0.1285287 0.16726859 0.35520265 0.3960666 0.054199804 0.030127775 -0.17405348
0.29927403 -0.2423629 -0.12198496 -0.3780675 -0.4080636 0.25271755 0.0056438553 0.3419088
00000000: 447c 14be 7f25 0b3e b51b 5f3e 9f0e fbbc
00000010: fafc d93e b9ed 9ebe df44 563e ea5f bd3e
00000020: e292 dcbd b9e9 b23e eef2 24bc 8c5b 9dbe
00000030: ee27 85be 4406 333e bd39 43be 4228 8c3d
00000040: 4cb5 d13e d93c 303e 4433 8dbc a1e9 b63d
00000050: c377 77be 55d5 bebe 6c10 b2be f2bb b2be
00000060: 7a15 7d3d 7950 9b3d 7d83 29be 632e d0be
00000070: 3af7 803e 393c 66be 5576 a5bd b9d5 afbe
00000080: 5763 77be 699d 363e a2be d6be f216 5abe
00000090: 1b8f a43e da6d 42be 88a5 20be 62c8 01be
000000a0: 3a5f 243e 699a 8abe 6dfe 993c 0d57 563e
000000b0: d1a3 febc deca cd3d 1984 b9be 2e83 3c3e
000000c0: 80ec 283e 9f87 1cbd e1cc b4be 070e 273e
000000d0: e48f 923e 842b acbd f3ad 663e f834 2c3e
000000e0: 8d32 cfbd 1c2f 0dbd 1ab4 da3e 37e0 27bc
000000f0: 9082 b2be b866 0fbc 60f1 453e bc33 1cbe
00000100: b107 60be d2bf b73e f0f1 7e3e c82c e9bd
00000110: c6c2 063d f2c8 adbd 3500 823d ea65 6c3c
00000120: 6893 7bbe 4341 9d3d 68e4 183d a5f9 27bb
00000130: 7550 2fbe d35c ac3d 143f 9fbe 8628 083e
00000140: 102b 703e 7408 91bd 925d adbe 419a 8a3a
00000150: 26fd 80bc 149d bebe 8edd abbe 5f84 c73e
00000160: 003f 7f3e 6cca 763e d9d1 9c3e ef8b 323e
00000170: 0074 863e 366a 843e 7bfb aabd 6be9 0fbd
00000180: dc50 9d3e 5cf9 f33b d0da 89be 2896 babe
00000190: c61c 783e 7325 aa3e f47d a23e 1719 963d
000001a0: 27a7 a03e 3bbd cebe 3e48 97be 1ebb e4be
000001b0: 4245 b13e 8d37 bdbc d284 2fbe 5275 153e
000001c0: 1d9b 27be cdb1 97be 12b3 253e e03b a73d
000001d0: b5e1 9dbe f2b4 8cbe 16b8 353e 8bfe a23e
000001e0: 708e 58bd ce47 5ebe d8ed 593e 07e1 b33d
000001f0: 932c bebe 8b01 9abe 7b76 f03d 2e13 923e
00000200: 279f febd 8c3a 5c3e 3823 84be 0e57 db3e
00000210: 78bf a13e 36f7 ac3d 07be 103e 0514 1f3e
00000220: b990 81be f84f 2fbc 7bfd f73d 2ca9 a4bd
00000230: b59f d83e fa98 1ebe 856a c3be 0a57 50be
00000240: fbd4 cbbe 87f3 ae3e 86ec 48be e6c4 a2be
00000250: e47e 7dbd 4fdf 95be bd67 55be 3410 633e
00000260: 35d4 8dbe 5d44 5e3e 0e19 9a3e 21a8 22bc
00000270: 48a5 413e 9f8d 80be 4f8b a23e fbe7 d53e
00000280: d1ba cd3d 2d3c ce3e d97d e0be c247 4cbb
00000290: 9117 903d 5675 a5be 8add 5c3e 61b8 27be
000002a0: abe3 23be 61fa b1be 8d6a 0a3e 5122 8abe
000002b0: 270c 96bd 1459 6b3e adf2 913e b72c a63d
000002c0: 2f52 1cbe 214b 2dbe 9c49 743e 1ccf 893d
000002d0: ee1b c83e b167 393e c0c1 c73e 0d77 a9be
000002e0: 700d ca3e afe6 40be a7cb 0ebe 3e8f 653a
000002f0: da65 ddbd 606d c43d 0ee4 b93e bd84 92be
00000300: 588c fe3d f857 c3be ea58 f53c 750a b13e
00000310: 3809 a13e 50bb c33e 3d73 a43e 8f8a 95bd
00000320: 6556 903d 1996 12be dfe4 b63e 9b11 733e
00000330: dbff b6be d618 bd3e 6afe 77bc 6fec aabc
00000340: 0509 01be 01ce 96bd f7dc 6d3d a527 55be
00000350: abdc d6be 7f57 89be ee18 e9bd d685 b03e
00000360: fa7f c33e a087 94be 7865 813c cd2e 01be
00000370: 2b9a 3bbe a525 c0bc 1822 2fbe bca3 6f3e
00000380: 1fdc 4ebe 7f8f 5d3d ddb9 7bbe 32d6 0ebe
00000390: d7e2 b33e ad19 58be 77c8 2bbd cf75 ce3e
000003a0: b7d2 113e 2891 5abe 12d5 82be 891a fdbd
000003b0: ad1c 11be e133 3b3e b9f1 cfbd b2f3 bb3e
000003c0: 4a55 76be 079d 03be 7548 2b3e 1fdd b53e
000003d0: 3ec9 ca3e 9d00 5e3d 86ce f63c 133b 32be
000003e0: 723a 993e fb2d 78be 40d3 f9bd 1092 c1be
000003f0: b6ed d0be 3264 813e 17f0 b83b ac0e af3e

model.encoder.transformer_encoder.mhca_layers.0.attn.to_v.weight f4 [48, 32]
0.4167562 0.36048153 -0.38804537 -0.1695785 0.23369126 -0.25197998 0.06103296 -0.16915093
0.06563279 0.18779863 0.13384642 0.32947138 -0.06884452 0.23495412 0.15483885 -0.12375624
-0.3002924 0.39151117 -0.1340389 0.3169239 0.27896264 -0.0063996017 -0.3339021 0.039528914
-0.17154485 0.12340187 -0.18640955 0.33066943 -0.42582247 -0.10470119 0.07644317 0.05675517
0.38003767 -0.110951275 -0.32558167 0.29502738 0.121660285 0.27870622 -0.28545946 -0.25262928
-0.19646272 -0.01657591 0.14859582 -0.2505663 -0.046867017 -0.07899366 0.38729987 -0.14089961
0.39513367 -0.27322775 -0.18425696 -0.32251188 0.3098182 -0.3037948 0.21381369 -0.16606213
0.4384033 0.08932426 -0.39854813 0.06486311 0.05163302 -0.39066488 0.09296743 0.42705244
0.10429781 -0.01296823 -0.09221427 0.09413679 -0.19969083 0.41080326 0.3557019 0.24121632
-0.13773729 -0.3996137 -0.23570724 0.40670356 -0.39218113 -0.41905448 -0.05012184 0.15323812
-0.44990006 -0.40144843 -0.009573133 -0.12481519 0.29772958 0.11228252 -0.35532504 -0.39794898
0.3169375 -0.06178871 -0.20205885 0.12422236 -0.111877434 0.19674827 0.12500669 -0.19257464
-0.34929058 0.20756608 -0.25900558 -0.061219532 0.06129495 -0.2514557 0.23761322 -0.28653517
0.13212712 0.11196748 0.15328437 -0.42738628 0.02797179 0.22233325 -0.261892 0.10308917
0.033752035 0.3751429 -0.09094976 -0.004371459 -0.18712722 -0.10746425 0.122678675 -0.40895477
0.33940175 0.29001683 0.18766211 0.33116457 -0.15191711 0.069814555 0.023680698 -0.32160828
-0.17950332 -0.16943952 -0.09098783 -0.39397296 -0.30476096 -0.051936734 -0.09037403 -0.38370073
0.13111266 0.22849306 0.37153283 0.34459195 -0.3019545 -0.14280768 -0.1623 0.082350455
0.17801182 0.08930997 0.24335456 0.23151346 -0.24513017 0.28858823 0.29165316 0.05056117
-0.41469344 -0.27110815 0.13028704 0.14425442 0.43304458 0.18232547 0.16690263 -0.035270903
0.25432268 -0.1757116 0.18006007 -0.23482373 -0.011060065 0.24919409 0.18750755 -0.085171245
0.013513636 -0.19797413 0.21038407 0.28353563 0.15325442 -0.41481644 -0.3033349 0.29601204
-0.02362751 0.2771624 0.31475735 -0.12643728 -0.25594416 -0.41263962 0.16759273 0.22403148
-0.076907024 -0.43447134 -0.2707536 -0.025643542 0.19409044 -0.18111631 -0.26861477 -0.3304849
0.33244357 0.13541365 -0.37767678 -0.26831308 -0.3691287 0.068121575 -0.13336153 0.035910044
-0.049926545 -0.34627 -0.38572156 -0.33477256 -0.1704609 0.06580609 -0.22206868 -0.02469124
-0.05122514 0.4009271 -0.19703741 0.41392538 -0.3105343 -0.35847628 0.115878984 -0.25264928
0.27670628 -0.26863426 0.37992844 0.41710874 -0.022310026 0.063549235 0.40399134 0.2463398
-0.36642313 0.00036624863 -0.37079653 0.3214655 -0.08173051 -0.015071583 -0.28815514 -0.21369328
0.043918718 0.32665795 -0.21352567 0.03470716 0.3799591 0.39192742 -0.08029442 0.41010275
0.1521507 0.3939035 0.0033546248 -0.36529076 -0.13152649 0.11722431 0.2715442 -0.43913636
0.35284212 -0.36605144 0.24249567 0.4234262 0.108528554 -0.05809813 0.24729872 -0.12001439
00000000: 1261 d53e 0991 b83e e2ad c6be fca5 2dbe
00000010: c34c 6f3e 8503 81be b2fd 793d e735 2dbe
00000020: 7c6a 863d 494e 403e 090f 093e 79b0 a83e
00000030: 5bfe 8cbd d097 703e 138e 1e3e e973 fdbd
00000040: edbf 99be 2774 c83e 7e41 09be d943 a23e
00000050: 31d4 8e3e c0b3 d1bb 37f5 aabe 12e9 213d
00000060: 74a9 2fbe 1fba fc3d 25e2 3ebe 814d a93e
00000070: 6705 dabe 946d d6bd 3d8e 9c3d 1c78 683d
00000080: 4c94 c23e 6c3a e3bd a4b2 a6be d40d 973e
00000090: 0729 f93d 95b2 8e3e be27 92be a058 81be
000000a0: 862d 49be 34ca 87bc 8129 183e 3a4a 80be
000000b0: a1f7 3fbd 6ec7 a1bd 2b4c c63e fd47 10be
000000c0: f64e ca3e 82e4 8bbe dbad 3cbe 4720 a5be
000000d0: 7ea0 9e3e fe8a 9bbe faf1 5a3e 310c 2abe
000000e0: 6676 e03e a3ef b63d 800e ccbe f3d6 843d
000000f0: 257d 533d 3a05 c8be b565 be3d 9ea6 da3e
00000100: 179a d53d b378 54bc d6da bcbd caca c03d
00000110: c17b 4cbe ce54 d23e 8f1e b63e 6901 773e
00000120: 010b 0dbe 2b9a ccbe 3d5d 71be 733b d03e
00000130: f7cb c8be 4f8e d6be 8f4c 4dbd 74ea 1c3e
00000140: 4d59 e6be a68a cdbe a1d8 1cbc 1b9f ffbd
00000150: 0370 983e 61f4 e53d 2aed b5be f8bf cbbe
00000160: a245 a23e 2916 7dbd 84e8 4ebe 4b68 fe3d
00000170: ff1f e5bd 6178 493e c101 003e 4932 45be
00000180: 37d6 b2be 348c 543e 619c 84be 55c1 7abd
00000190: 6a10 7b3d cdbe 80be e150 733e bdb4 92be
000001a0: 554c 073e 354f e53d 94f6 1c3e 60d2 dabe
000001b0: 1825 e53c 54ab 633e b516 86be 6a20 d33d
000001c0: 933f 0a3d bb12 c03e de43 babd 753e 8fbb
000001d0: 479e 3fbe 3716 dcbd f53e fb3d 8562 d1be
000001e0: 11c6 ad3e 167d 943e 7f2a 403e 678e a93e
000001f0: 2990 1bbe effa 8e3d 06fe c13c d7a9 a4be
00000200: b8cf 37be 8e81 2dbe d457 babd d3b6 c9be
00000210: a109 9cbe 9dbb 54bd 0516 b9bd 6c74 c4be
00000220: 6642 063e 16fa 693e 8d39 be3e 5b6e b03e
00000230: c899 9abe 2d3c 12be f931 26be 5ba7 a83d
00000240: bb48 363e 25e8 b63d f031 793e dd11 6d3e
00000250: 6703 7bbe d6c1 933e 9053 953e 3b19 4f3d
00000260: b352 d4be b0ce 8abe f769 053e 6eb7 133e
00000270: 05b8 dd3e 87b3 3a3e 86e8 2a3e 3978 10bd
00000280: 9536 823e beed 33be ab61 383e a275 70be
00000290: 4635 35bc bc2c 7f3e fb01 403e 436e aebd
000002a0: 4c68 5d3c bbb9 4abe ec6e 573e 952b 913e
000002b0: baee 1c3e d262 d4be b64e 9bbe e48e 973e
000002c0: 7b8e c1bc 3be8 8d3e e027 a13e c678 01be
000002d0: 1d0b 83be 8045 d3be 6e9d 2b3e 8268 653e
000002e0: 6e81 9dbd 0773 debe 37a0 8abe 6812 d2bc
000002f0: a5bf 463e 8e76 39be e087 89be 5135 a9be
00000300: 0b36 aa3e e0a9 0a3e da5e c1be 5560 89be
00000310: 70fe bcbe 5383 8b3d ed8f 08be 6916 133d
00000320: c77f 4cbd 4d4a b1be 4c7d c5be 4f67 abbe
00000330: 4d8d 2ebe 58c5 863d f965 63be 4945 cabc
00000340: 74d1 51bd 5146 cd3e 2dc4 49be 07ee d33e
00000350: 5afe 9ebe 348a b7be f651 ed3d 3f5b 81be
00000360: 72ac 8d3e 6e8a 89be fb85 c23e 478f d53e
00000370: 84c3 b6bc 1a26 823d f4d7 ce3e 8040 7c3e
00000380: d09b bbbe 0f05 c039 0bd9 bdbe 2097 a43e
00000390: 5362 a7bd cdee 76bc 1289 93be 69d2 5abe
000003a0: 1de4 333d b63f a73e 79a6 5abe 1829 0e3d
000003b0: 008a c23e b6aa c83e 6771 a4bd fdf8 d13e
000003c0: 65cd 1b3e b8ad c93e 44d9 5b3b 6407 bbbe
000003d0: e1ae 06be 4d13 f03d d707 8b3e 7bd6 e0be
000003e0: b9a7 b43e 186b bbbe c950 783e 52cb d83e
000003f0: 3844 de3d 4ef8 6dbd e03b 7d3e 1bca f5bd

model.encoder.transformer_encoder.mhca_layers.0.attn.to_out.0.weight f4 [32, 48]
0.30143 0.3257379 0.01631825 0.2553442 0.17420864 -0.26456797 -0.19749065 0.006649068
-0.26119813 -0.129118 0.29478413 0.16518803 0.3073937 -0.07076589 -0.16609322 0.22951289
0.0011825522 0.07917019 -0.17921093 0.15848528 -0.27713087 0.28240252 0.32074112 0.11116995
0.28380662 0.20947571 -0.1646228 -0.28771693 0.034969322 0.20225215 -0.0029509552 0.014727517
0.23767485 0.15754387 0.27615657 0.053572193 0.036930386 -0.055281173 -0.062063124 -0.13445309
0.23843054 0.31048435 0.114019744 0.017130686 -0.1186013 -0.31124687 -0.009284328 -0.23870154
-0.2493643 -0.07618335 -0.06613663 0.07013711 -0.2855661 0.24864128 -0.32988665 -0.15401496
-0.1463553 -0.016605543 0.15809564 -0.063288055 0.05242297 -0.06268949 -0.13804768 -0.061596315
0.061408274 -0.3322763 -0.24940641 0.27019542 0.13755114 0.0029491738 0.022738952 0.04699138
0.07475392 -0.25722733 -0.101589255 -0.31137455 -0.27595988 -0.03593064 -0.045553274 0.28084502
0.04562233 -0.027295021 -0.08126361 0.1919196 -0.06523378 -0.032922674 -0.08385695 -0.3179715
-0.04267703 -0.340593 -0.21367508 -0.22959216 0.2128162 -0.2760276 0.28845465 0.099334426
-0.25287384 0.2854426 -0.12092759 -0.2823228 0.02068714 0.1999838 -0.33791992 -0.04216421
0.15573397 -0.093137875 -0.0036197933 -0.17150834 -0.20703149 0.2629735 -0.25556806 -0.035599776
0.13974613 -0.13483807 0.1947676 -0.3757579 0.32744136 0.121279694 -0.058577187 -0.28523704
-0.01235194 0.14011227 -0.14153285 -0.01663104 -0.34110314 -0.32079226 -0.0036288768 0.30082852
-0.015608883 0.14504002 -0.13120988 -0.07829466 -0.03981058 -0.16764808 0.23566116 0.22532614
-0.24714342 0.08099051 -0.16100618 -0.21004249 -0.0639167 -0.11336025 -0.2027286 0.03756414
0.19505493 -0.044074163 -0.036530312 0.03097018 -0.14473084 0.18033636 0.33328828 -0.03527158
0.023742685 0.27726603 0.28145334 -0.27250755 -0.17110185 -0.3443929 0.20645416 0.27037722
-0.14110376 0.10258863 0.07394425 -0.25200415 0.13960467 0.16488758 0.01246651 0.03687883
0.08501694 0.2641009 0.2618444 0.052406803 0.1519474 -0.116325356 0.22533262 -0.1532861
-0.2819923 0.11903672 0.15855262 0.104586534 0.19121489 0.024795441 0.107211664 0.19342156
-0.1898403 -0.04819 0.06503939 -0.039181583 -0.3409503 0.0413233 0.20979817 -0.20547296
0.3658502 0.08033708 0.18260083 -0.1413436 -0.3280225 -0.14038798 0.0059763175 -0.16962332
0.2982406 -0.27052823 -0.23065531 -0.0972765 0.3028832 -0.13569506 0.32542866 0.16561686
-0.047766548 0.16792779 0.17268872 -0.20348027 -0.07063346 0.35185325 0.19597311 -0.17072448
-0.10898367 0.18182874 0.21926528 0.023531824 -0.2296081 -0.24486704 -0.08515201 0.13286161
-0.052327875 -0.2613651 -0.11778851 0.34099397 -0.26386264 -0.24481708 0.2268599 0.33131984
-0.33076042 -0.32635114 -0.12962043 0.34896076 -0.22670737 0.05828654 0.2722059 -0.1449947
-0.10777569 -0.2270988 0.0016887856 0.31967002 0.14191571 0.24026898 -0.026327902 -0.041029282
-0.060721017 0.19597179 -0.03877171 -0.3003427 -0.13061288 0.13334617 0.3573822 -0.085364535
00000000: 0855 9a3e 1ec7 a63e daad 853c 7abc 823e
00000010: c063 323e 7475 87be fd3a 4abe 6de0 d93b
00000020: c3bb 85be 8237 04be f2ed 963e 0d27 293e
00000030: b562 9d3e b5ed 90bd 5714 2abe 6d05 6b3e
00000040: deff 9a3a fb23 a23d 1283 37be f749 223e
00000050: 19e4 8dbe 1097 903e 2e38 a43e 12ad e33d
00000060: 1a4f 913e cd80 563e e192 28be a24f 93be
00000070: fe3b 0f3d 301b 4f3e d064 41bb af4b 713c
00000080: 0961 733e 2e53 213e 6564 8d3e 846e 5b3d
00000090: 5144 173d 836e 62bd e735 7ebd 12ae 09be
000000a0: 2327 743e cef7 9e3e 2f83 e93d a755 8c3c
000000b0: 3de5 f2bd c05b 9fbe 4b1d 18bc 2d6e 74be
000000c0: 5b59 7fbe 0406 9cbd a472 87bd 0ca4 8f3d
000000d0: b835 92be d29b 7e3e e7e6 a8be 19b6 1dbe
000000e0: 2ade 15be 5908 88bc d3e3 213e 2b9d 81bd
000000f0: 78b9 563d 5963 80bd 5f5c 0dbe 6b4c 7cbd
00000100: 3e87 7b3d 1f20 aabe 6564 7fbe 0e57 8a3e
00000110: 35da 0c3e ed46 413b 0a47 ba3c 097a 403d
00000120: 9518 993d 4db3 83be 070e d0bd 7c6c 9fbe
00000130: 9d4a 8dbe 022c 13bd 1296 3abd ebca 8f3e
00000140: 7bde 3a3d cf99 dfbc 896d a6bd 9286 443e
00000150: 4a99 85bd edd9 06bd 31bd abbd 29cd a2be
00000160: 1cce 2ebd 3562 aebe a4cd 5abe 351a 6bbe
00000170: 7dec 593e 7d53 8dbe 54b0 933e d96f cb3d
00000180: ae78 81be 8825 923e e2a8 f7bd 9d8c 90be
00000190: 1478 a93c 8ec8 4c3e d703 adbe 61b4 2cbd
000001a0: ba78 1f3e 12bf bebd 0e3a 6dbb e29f 2fbe
000001b0: 1000 54be 76a4 863e d1d9 82be 12d1 11bd
000001c0: 9c19 0f3e fe12 0abe 2871 473e 5763 c0be
000001d0: 65a6 a73e 7d61 f83d a2ee 6fbd 970a 92be
000001e0: cb5f 4abc 9779 0f3e fded 10be d23d 88bc
000001f0: 12a5 aebe e23e a4be 73d2 6dbb 3206 9a3e
00000200: 67bc 7fbc 5f85 143e e25b 06be f358 a0bd
00000210: 6b10 23bd f0ab 2bbe 2951 713e e5bb 663e
00000220: 2a13 7dbe 5ade a53d cede 24be 6115 57be
00000230: c2e6 82bd 6b29 e8bd 1698 4fbe dbdc 193d
00000240: 7bbc 473e 1c87 34bd cfa0 15bd 2db5 fd3c
00000250: 5234 14be 18aa 383e c3a4 aa3e ef78 10bd
00000260: 0580 c23c d0f5 8d3e a71a 903e 1c86 8bbe
00000270: 5335 2fbe 4454 b0be b868 533e e26e 8a3e
00000280: 817d 10be fd19 d23d 1570 973d b006 81be
00000290: 87f4 0e3e 4ad8 283e 5540 4c3c 420e 173d
000002a0: 5d1d ae3d 3c38 873e 7810 863e 84a8 563d
000002b0: 1998 1b3e fd3b eebd 98bd 663e 08f7 1cbe
000002c0: 4b61 90be 86c9 f33d 9e5b 223e 7731 d63d
000002d0: d6cd 433e cf1f cb3c ca91 db3d 4d10 463e
000002e0: 7f65 42be e162 45bd 5f33 853d de7c 20bd
000002f0: 0a91 aebe 9f42 293d 55d5 563e 8167 52be
00000300: b850 bb3e c487 a43d b6fb 3a3e 60bc 10be
00000310: 91f2 a7be dec1 0fbe fcd4 c33b bcb1 2dbe
00000320: feb2 983e ad82 8abe e830 6cbe e738 c7bd
00000330: 8213 9b3e a5f3 0abe 969e a63e 7797 293e
00000340: dba6 43bd 43f5 2b3e 50d5 303e 225d 50be
00000350: 47a8 90bd 1c26 b43e 2dad 483e 66d2 2ebe
00000360: d532 dfbd 5031 3a3e 1487 603e d0c5 c03c
00000370: 631e 6bbe 6dbe 7abe 2d64 aebd e00c 083e
00000380: c155 56bd a5d1 85be 1a3b f1bd c396 ae3e
00000390: 0119 87be 54b1 7abe f64d 683e c1a2 a93e
000003a0: 6e59 a9be 7f17 a7be 38bb 04be fcaa b23e
000003b0: fa25 68be debd 6e3d 925e 8b3e 7e79 14be
000003c0: 80b9 dcbd 968c 68be 3e5a dd3a caab a33e
000003d0: 5a52 113e 1209 763e 9dad d7bc 520e 28bd
000003e0: 9ab6 78bd d4ac 483e 16cf 1ebd 85c6 99be
000003f0: 62bf 05be e68b 083e cdfa b63e 9ad3 aebd

model.encoder.transformer_encoder.mhca_layers.0.attn.to_out.0.bias f4 [32]
-0.008913772 0.0172078 0.0015007422 0.007201791 0.008122285 -0.0040957546 0.007861584 -0.010365443
0.017011618 -0.0055556423 0.01891139 0.0029154683 -0.024793088 -0.022675818 -0.003956901 0.013528204
-0.013048648 -0.003337747 0.010735751 0.005389719 -0.0017908822 -0.002587385 0.01587793 0.007564897
-0.01027006 0.012285251 0.010010608 -0.025201667 -0.0037402965 0.0006503929 -0.013364362 -0.00086632225
00000000: 120b 12bc 5ff7 8c3c 8db4 c43a 00fd eb3b
00000010: 5513 053c ae35 86bb e0cd 003c d2d3 29bc
00000020: f35b 8b3c 1b0c b6bb 0fec 9a3c 7111 3f3b
00000030: e01a cbbc a3c2 b9bc e4a8 81bb 66a5 5d3c
00000040: ffc9 55bc 1abe 5abb 01e5 2f3c 3d9c b03b
00000050: 09bc eaba 1e91 29bb 6f12 823c f5e2 f73b
00000060: c143 28bc 1448 493c 8803 243c ba73 cebc
00000070: c31f 75bb 217f 2a3a 32f6 5abc e719 63ba

model.encoder.transformer_encoder.mhca_layers.0.ff_block.0.weight f4 [32, 32]
-0.18610707 0.23026048 0.18781765 0.21947123 -0.12109874 -0.37030318 -0.43263483 0.03971194
-0.41644153 -0.2788807 0.27265742 -0.051976934 0.14442727 -0.34904882 0.036243875 0.4008225
0.07145756 0.09506865 -0.27734324 -0.30320755 0.2539225 -0.36626282 -0.020578517 -0.34006897
0.04055126 -0.40535116 0.14497308 -0.011906178 -0.26694158 -0.15355766 -0.15975717 -0.20144808
-0.12736157 0.075370744 -0.25500962 0.11247029 -0.36988837 0.41111177 -0.25962976 0.20812826
-0.28858966 -0.2818422 -0.058653757 -0.2354958 -0.13434833 -0.17136385 -0.11571826 -0.32125023
0.40196502 0.22597648 -0.18017666 0.34988725 -0.21466087 -0.38006383 0.14110413 -0.14628892
0.33999118 -0.09137433 -0.36547413 0.34093508 0.09727008 0.1467531 -0.027307132 -0.3608028
0.14607672 0.03289825 -0.2743875 0.2738227 -0.37031847 -0.2722709 -0.10441107 -0.4378588
-0.42156374 -0.14396328 -0.089068554 0.33577415 0.19685319 0.39860395 0.13684775 0.041892655
-0.07454909 -0.17552361 -0.34059268 -0.3989147 0.18589534 -0.27036673 -0.1812154 0.19655335
-0.2887244 0.1468107 -0.03054351 0.104890846 -0.19244897 0.33695352 -0.37125918 -0.39076006
0.31978413 -0.34430432 0.43121612 0.18099017 0.17040518 -0.05871958 0.077756114 0.14026202
-0.18584533 0.3292406 0.26889285 -0.016334306 0.1293653 -0.04893715 -0.12367021 -0.33486867
-0.16337577 -0.45152706 -0.13323459 0.23643005 0.4147302 -0.4076046 -0.36655104 0.33603147
-0.13921061 -0.012506506 0.31136397 0.40783396 0.15445682 0.06141573 0.0034248158 -0.0023256736
0.1735232 -0.42285913 -0.46640855 0.30296022 -0.38198495 0.24193065 0.3075611 0.29498088
0.15405531 0.044169053 0.23375756 0.25739086 -0.014368393 -0.31803465 0.32322964 0.0702313
0.2622273 -0.28676277 -0.099021584 -0.27801862 -0.0016142547 0.39436486 0.07393726 0.37117025
0.29362774 -0.3089919 0.39863414 -0.029749913 0.35280827 0.07645086 -0.059477568 0.36379117
-0.30106997 0.008263795 -0.029126888 0.010929956 -0.13034233 0.3009452 -0.027902195 0.24078658
0.13456227 0.39461067 0.19695488 -0.42110205 -0.29031834 -0.41483617 -0.40051314 -0.3885526
0.008695472 0.38575274 -0.33651474 0.18864396 -0.16927521 0.2518069 0.26211876 0.18178242
0.44522068 -0.34431636 -0.35546735 -0.28864333 0.06046003 0.42777747 0.26480028 0.15605122
-0.112836376 -0.24206576 0.4292736 -0.34624186 -0.3164187 0.23417431 0.31955317 0.108028926
-0.01319005 -0.07176071 0.0861944 -0.20216063 0.45372936 0.4279523 -0.20269182 0.30561522
-0.099759534 -0.3058793 0.08272297 -0.071620174 0.32162133 -0.010139765 -0.025104482 -0.35262942
0.26490968 0.3145714 0.04221455 -0.048060752 -0.08499174 0.11598232 0.3821899 -0.084071785
0.037397034 -0.4082261 0.107788496 -0.18755382 -0.114588074 -0.23695219 0.39483005 0.31904373
-0.19614963 -0.09827705 0.14597405 0.15063086 -0.21883179 0.17509736 0.04928238 0.25420812
-0.24001737 -0.2910421 0.18159938 0.004894199 -0.19257076 0.3338122 -0.03566514 -0.30044663
-0.044145655 -0.18570466 -0.13772675 -0.38505626 0.34148988 0.38629943 -0.34049228 0.26725248
00000000: da92 3ebe 67c9 6b3e 4553 403e 11bd 603e
00000010: 9e02 f8bd 6198 bdbe 5082 ddbe fda8 223d
00000020: d337 d5be 73c9 8ebe c199 8b3e c4e5 54bd
00000030: bee4 133e 87b6 b2be 7574 143d 9b38 cd3e
00000040: 5758 923d 5ab3 c23d efff 8dbe 053e 9bbe
00000050: 2102 823e cd86 bbbe 4794 a8bc 851d aebe
00000060: 1419 263d 308a cfbe d373 143e 2112 43bc
00000070: 91ac 88be 383e 1dbe 6297 23be 6848 4ebe
00000080: 126b 02be fa5b 9a3d 9f90 82be d356 e63d
00000090: 0262 bdbe 3e7d d23e 31ee 84be 931f 553e
000000a0: 06c2 93be 9f4d 90be ec3e 70bd d025 71be
000000b0: 9c92 09be 017a 2fbe b2fd ecbd e97a a4be
000000c0: 5cce cd3e 6166 673e 3b80 38be 6c24 b33e
000000d0: 0fd0 5bbe ba97 c2be 9a7d 103e c3cc 15be
000000e0: 5313 ae3e 7722 bbbd 6d1f bbbe 0b8f ae3e
000000f0: 8935 c73d 7246 163e 35b3 dfbc 25bb b8be
00000100: 2395 153e 51c0 063d 857c 8cbe 7d32 8c3e
00000110: 629a bdbe 1767 8bbe 79d5 d5bd 072f e0be
00000120: 34d7 d7be 1c6b 13be 9369 b6bd 97ea ab3e
00000130: e293 493e d115 cc3e d121 0c3e a297 2b3d
00000140: 31ad 98bd 76bc 33be 2a62 aebe 8c3e ccbe
00000150: 595b 3e3e 826d 8abe 8890 39be 4845 493e
00000160: afd3 93be 8b55 163e 6236 fabc 03d1 d63d
00000170: 5811 45be 2c85 ac3e af15 bebe b411 c8be
00000180: bfba a33e a848 b0be 5cc8 dc3e 7d55 393e
00000190: b27e 2e3e f183 70bd 993e 9f3d d9a0 0f3e
000001a0: 3d4e 3ebe 3992 a83e 53ac 893e 86cf 85bc
000001b0: 5678 043e 5272 48bd cf46 fdbd e873 abbe
000001c0: fa4b 27be 8e2e e7be a66e 08be b81a 723e
000001d0: 8457 d43e 8db1 d0be 94ac bbbe 510c ac3e
000001e0: 3a8d 0ebe 17e8 4cbc 196b 9f3e 9dcf d03e
000001f0: ee29 1e3e 0f8f 7b3d e072 603b 546a 18bb
00000200: 11b0 313e fe80 d8be 1acd eebe 9a1d 9b3e
00000210: 8893 c3be abbc 773e a678 9d3e bc07 973e
00000220: adc0 1d3e 9cea 343d 245e 6f3e bcc8 833e
00000230: 6969 6bbc 70d5 a2be 5b7e a53e 6ed5 8f3d
00000240: a842 863e 92d2 92be d4cb cabd 7558 8ebe
00000250: 6695 d3ba 31ea c93e 6b6c 973d 070a be3e
00000260: 6056 963e 3034 9ebe c619 cc3e 17b6 f3bc
00000270: 49a3 b43e 4592 9c3d c09e 73bd d642 ba3e
00000280: d825 9abe de64 073c 839b eebc 8f13 333c
00000290: 7678 05be 7d15 9a3e 2593 e4bc c290 763e
000002a0: b1ca 093e 690a ca3e 8aae 493e b09a d7be
000002b0: 9ba4 94be 6865 d4be 0f10 cdbe 5ef0 c6be
000002c0: 7477 0e3c 6281 c53e a94b acbe e22b 413e
000002d0: 7b56 2dbe d6ec 803e 6e34 863e 2c25 3a3e
000002e0: f7f3 e33e 3c4a b0be d1ff b5be 0fc9 93be
000002f0: f0a4 773d a605 db3e e793 873e e4cb 1f3e
00000300: c216 e7bd 16e0 77be c0c9 db3e 9d46 b1be
00000310: a201 a2be 64cb 6f3e 799c a33e 453e dd3d
00000320: 141b 58bc 47f7 92bd b186 b03d 3203 4fbe
00000330: 374f e83e 901c db3e 728e 4fbe 9979 9c3e
00000340: ba4e ccbd 369c 9cbe a96a a93d 99ad 92bd
00000350: 8dab a43e 4221 26bc eaa7 cdbc d88b b4be
00000360: 3ea2 873e 810f a13e 2ae9 2c3d 5adb 44bd
00000370: 2610 aebd 2388 ed3d 65ae c33e d42d acbd
00000380: a22d 193d 0303 d1be 37c0 dc3d 1c0e 40be
00000390: 27ad eabd 98a3 72be 2a27 ca3e b359 a33e
000003a0: 73db 48be 7a45 c9bd 397a 153e fa3e 1a3e
000003b0: 7115 60be b94c 333e 52dc 493d 9127 823e
000003c0: 1dc7 75be 7803 95be 30f5 393e 845f a03b
000003d0: 4531 45be 6fe9 aa3e 9c15 12bd 24d4 99be
000003e0: 13d2 34bd 5d29 3ebe 3e08 0dbe 1826 c5be
000003f0: c3d7 ae3e 0ac9 c53e 0155 aebe 51d5 883e

model.encoder.transformer_encoder.mhca_layers.0.ff_block.0.bias f4 [32]
-0.010590894 -0.023111809 0.014551851 0.004466654 -0.022163846 -0.009223237 -0.016170789 -0.0068306252
-0.0016193982 -0.0030532966 0.012333309 0.016222585 -0.0019658145 -0.0034058252 0.010746304 0.008008788
0.005079303 -0.0013415464 0.0028797248 -0.0016843028 0.0049070567 0.0017472947 -0.005788588 -0.013997529
-0.0017031636 -0.009143241 0.0060220556 0.0035653026 -0.0026806358 0.0059078215 0.0027419738 0.014321829
00000000: 6e85 2dbc fa54 bdbc e36a 6e3c 025d 923b
00000010: f490 b5bc 0f1d 17bc 9a78 84bc 70d3 dfbb
00000020: fd41 d4ba d119 48bb a611 4a3c 3ae5 843c
00000030: e5d4 00bb 4434 5fbb 4411 303c 4b37 033c
00000040: 4870 a63b d4d6 afba c4b9 3c3b d3c3 dcba
00000050: 60cb a03b 7b05 e53a 32ae bdbb e455 65bc
00000060: b03c dfba 88cd 15bc aa54 c53b daa7 693b
00000070: 9bad 2fbb 6696 c13b b0b2 333b 1ba6 6a3c

model.encoder.transformer_encoder.mhca_layers.0.ff_block.3.weight f4 [32, 32]
-0.40791973 -0.058246534 0.09377664 0.13219853 0.42962936 0.030332562 0.0030980147 0.36106142
-0.03576812 0.11546862 -0.33978677 -0.18114291 -0.32786605 0.04000339 -0.34549946 0.32509676
-0.19199972 -0.33259502 0.042453595 -0.18261418 -0.24750106 0.32188487 0.14639896 0.07945092
0.19043787 -0.13547173 0.018133586 0.43475962 -0.17018107 0.16034351 0.36702347 -0.012799048
0.35945052 -0.08430117 -0.08470851 0.10723802 -0.025674922 -0.09446288 -0.10414572 0.09695107
-0.2362775 -0.31464553 -0.3401614 0.43241948 0.036963843 0.18566734 -0.42170328 -0.050685357
-0.35694584 0.00057424617 0.36785096 0.31544054 -0.16781227 -0.23887189 -0.35468954 -0.21621549
0.17679921 -0.25670373 0.28743562 -0.16722725 0.399292 -0.093580425 -0.07281619 0.280804
0.29509714 0.27278537 0.34299526 -0.40781963 0.21166252 -0.27644023 0.33204496 0.31057113
-0.04425842 0.14418653 0.11318511 0.1661778 0.26484314 0.1203087 -0.15000468 0.007851447
0.04655956 -0.4002132 0.17757104 -0.30024654 0.26992178 0.3833833 0.09463759 0.34114337
-0.033034906 0.2927543 0.1998513 -0.3539181 -0.35799628 -0.0792835 0.16475 -0.10592552
-0.092537776 0.27518305 0.39249185 0.17372185 0.15983747 0.18671092 0.09150446 -0.39441693
-0.4115742 -0.38710505 -0.36362264 0.3331805 -0.063241884 -0.30253446 0.10074966 0.0023849176
-0.2592433 -0.39764097 0.1556653 0.0059887767 -0.15183367 -0.23050354 -0.091027856 0.3738134
-0.36644515 -0.15501806 -0.110072225 0.418217 0.031278357 0.29133052 -0.043017756 -0.075095944
0.24056213 -0.17732 0.25672117 0.3478026 0.15956321 0.28292736 -0.3492209 0.38365135
-0.26905873 0.2400718 0.1362417 0.017635383 0.09006691 -0.4280772 0.4176707 -0.027106587
0.39009985 0.011539102 -0.1997383 0.26066148 -0.016892444 -0.28577116 0.039227635 -0.45808935
-0.24496147 -0.33186045 0.0016377503 -0.26935413 -0.009553848 -0.32421938 -0.37843412 -0.0664638
0.054379575 0.2874167 -0.17261285 0.4257007 -0.31984204 0.16416244 -0.36787313 0.3668114
-0.14988959 0.2440956 0.05336855 -0.14585216 -0.10374982 -0.16173966 0.25892362 0.33021185
0.43340865 -0.07132134 -0.15816644 -0.24631618 -0.017104436 0.097220175 -0.04488812 -0.27794313
0.05622236 -0.027189199 -0.3393105 -0.14731774 -0.022038544 -0.432791 0.06959089 0.16590977
-0.0424108 -0.07437318 0.003876197 0.12504627 -0.19591078 -0.07545755 0.22316906 -0.13192365
0.00624742 -0.39683804 -0.33312574 -0.016994677 -0.14281744 0.4011746 -0.09746588 -0.3528676
0.38763487 -0.2663827 0.35811397 -0.05167171 0.08940823 -0.42560795 0.37365103 0.014591677
-0.22190596 -0.29414615 0.13791065 -0.41350743 0.31826362 0.23533443 0.37532645 0.4167475
-0.25160697 -0.1018429 0.24855584 0.25935486 0.42262158 -0.1635356 0.030794486 -0.009662804
0.23853591 -0.21464638 0.3652887 -0.15552151 0.21781611 0.31588984 -0.44473806 0.086640514
-0.3047963 0.23361261 0.31610325 -0.12290511 -0.31295004 -0.22606313 0.29912248 -0.04675394
-0.34036526 0.340935 0.34610632 -0.060470995 0.046571314 0.036196385 0.40978694 0.2858616
00000000: dbda d0be eb93 6ebd f80d c03d 0d5f 073e
00000010: 61f8 db3e fe7b f83c 1008 4b3b 0bdd b83e
00000020: 9881 12bd d07a ec3d 88f8 adbe 877d 39be
00000030: 0fde a7be 98da 233d 4ee5 b0be 1573 a63e
00000040: 939b 44be e549 aabe d2e3 2d3d 36ff 3abe
00000050: eb70 7dbe 18ce a43e 9ce9 153e 2ab7 a23d
00000060: 2502 433e 1ab9 0abe e38c 943c d098 de3e
00000070: f243 2ebe 1731 243e 80ea bb3e 19b3 51bc
00000080: e609 b83e 18a6 acbd a87b adbd 9b9f db3d
00000090: 3754 d2bc c175 c1bd 5a4a d5bd 488e c63d
000000a0: bbf2 71be 3819 a1be a329 aebe 1666 dd3e
000000b0: 6667 173d 941f 3e3e 7ee9 d7be 739b 4fbd
000000c0: 9bc1 b6be 0289 163a f656 bc3e 6c81 a13e
000000d0: fbd6 2bbe d59a 74be de99 b5be 9867 5dbe
000000e0: da0a 353e ac6e 83be c32a 933e 9f3d 2bbe
000000f0: 0070 cc3e 18a7 bfbd a820 95bd 8bc5 8f3e
00000100: f916 973e 86aa 8b3e 139d af3e bccd d0be
00000110: 0fbe 583e 9389 8dbe cc01 aa3e 2e03 9f3e
00000120: 5148 35bd a2a5 133e 98cd e73d 832a 2a3e
00000130: 8599 873e 6864 f63d d49a 19be 5ba3 003c
00000140: 3db5 3e3d bfe8 ccbe 2fd5 353e eab9 99be
00000150: 3033 8a3e d14a c43e 5ad1 c13d 58aa ae3e
00000160: 9c4f 07bd e4e3 953e d2a5 4c3e c134 b5be
00000170: 4a4b b7be 635f a2bd 39b4 283e 7bef d8bd
00000180: 7284 bdbd cbe4 8c3e b1f4 c83e 24e4 313e
00000190: 6fac 233e 2631 3f3e b166 bb3d 04f1 c9be
000001a0: dbb9 d2be a232 c6be bf2c babe a296 aa3e
000001b0: f684 81bd cce5 9abe d655 ce3d 474c 1c3b
000001c0: 8abb 84be 9997 cbbe b966 1f3e 803d c43b
000001d0: 497a 1bbe 1f09 6cbe d06c babd 7864 bf3e
000001e0: b39e bbbe 0ebd 1ebe 8c6d e1bd 8a20 d63e
000001f0: bc1d 003d 4629 953e 6333 30bd e7cb 99bd
00000200: eb55 763e 6093 35be f570 833e 2f13 b23e
00000210: 8a64 233e dbdb 903e 15cd b2be f36d c43e
00000220: 11c2 89be 62d5 753e f282 0b3e 1478 903c
00000230: 0075 b83d ef2c dbbe efd8 d53e a20e debc
00000240: 2bbb c73e 800e 3d3c 3288 4cbe 6c75 853e
00000250: 0662 8abc 9950 92be 28ad 203d b08a eabe
00000260: 2ed7 7abe 9de9 a9be c8a9 d63a c9e8 89be
00000270: be87 1cbc 1500 a6be 1ec2 c1be 2c1e 88bd
00000280: 1ebd 5e3d 4828 933e 6cc1 30be 71f5 d93e
00000290: 56c2 a3be 331a 283e de59 bcbe b4ce bb3e
000002a0: a87c 19be 32f4 793e fb98 5a3d 455a 15be
000002b0: c97a d4bd 159f 25be a391 843e 8711 a93e
000002c0: bde7 dd3e ec10 92bd 62f6 21be 4f3a 7cbe
000002d0: 9a1e 8cbc 5f1b c73d 9bdc 37bd 904e 8ebe
000002e0: 6b49 663d e2bb debc 1bba adbe 76da 16be
000002f0: 2d8a b4bc c896 ddbe ab85 8e3d 40e4 293e
00000300: f2b6 2dbd f750 98bd cb07 7e3b 210c 003e
00000310: d69c 48be 7d89 9abd 6e86 643e fe16 07be
00000320: 28b7 cc3b 5b2e cbbe 758f aabe 6c38 8bbc
00000330: bc3e 12be c266 cd3e 319c c7bd 10ab b4be
00000340: 1478 c63e 5063 88be b75a b73e b7a5 53bd
00000350: a91b b73d 49e9 d9be 304f bf3e ee11 6f3c
00000360: 513b 63be 539a 96be 7338 0d3e 3fb7 d3be
00000370: 73f3 a23e 82fb 703e ca2a c03e ee5f d53e
00000380: a1d2 80be 0393 d0bd 6c85 7e3e 29ca 843e
00000390: db61 d83e e075 27be b844 fc3c bd50 1ebc
000003a0: c242 743e 43cc 5bbe 1f07 bb3e 0841 1fbe
000003b0: 300b 5f3e 50bc a13e b5b4 e3be 9570 b13d
000003c0: 430e 9cbe 2538 6f3e 49d8 a13e adb5 fbbd
000003d0: fd3a a0be 187d 67be 9526 993e 0f81 3fbd
000003e0: 5b44 aebe 088f ae3e d934 b13e 6fb0 77bd
000003f0: 90c1 3e3d a942 143d 98cf d13e 745c 923e

model.encoder.transformer_encoder.mhca_layers.0.ff_block.3.bias f4 [32]
0.008758114 0.0032428524 -0.004737815 0.005322181 -0.00451367 -0.0015343437 -0.002633812 -0.0071167615
0.0006850295 -0.0035632662 0.009590546 -0.0035506885 -0.0050673718 -0.011326851 -0.009981461 0.012333145
9.511054e-05 0.00011409721 -0.006950785 0.0009326317 -0.0057056337 0.0029796504 0.00911219 -0.0014548267
-0.015058079 0.00088797975 0.0031251032 -0.0062344368 0.010204696 0.026008824 -0.00924768 -0.0048203473
00000000: 317e 0f3c 0986 543b ac3f 9bbb b165 ae3b
00000010: 69e7 93bb 081c c9ba 089c 2cbb b933 e9bb
00000020: 8d93 333a b085 69bb aa21 1d3c abb2 68bb
00000030: 320c a6bb 4294 39bc 4889 23bc f610 4a3c
00000040: 1576 c738 7947 ef38 69c3 e3bb db7b 743a
00000050: 53f6 babb 3d46 433b 4c4b 153c e2af beba
00000060: 29b6 76bc 50c7 683a 88ce 4c3b 3f4a ccbb
00000070: 9931 273c 7510 d53c 9583 17bc 01f4 9dbb

model.encoder.transformer_encoder.mhca_layers.0.norm1.weight f4 [32]
0.9972028 0.99801606 0.98704284 1.0107431 0.9903138 1.0051414 0.9824248 1.0350156
1.0332923 0.99891156 1.0045186 0.9903426 0.9891848 0.9918306 1.0189859 0.9920367
0.99697435 1.0012045 0.96190685 0.99574536 0.99650854 0.9823772 0.98375165 0.99230385
1.0253011 0.9952338 1.002417 1.020099 1.0022981 1.022508 0.98200077 1.010667
00000000: af48 7f3f fb7d 7f3f d7ae 7c3f 0860 813f
00000010: 3585 7d3f 79a8 803f 3180 7b3f 647b 843f
00000020: ec42 843f abb8 7f3f 1194 803f 1887 7d3f
00000030: 373b 7d3f 9ce8 7d3f 216e 823f 1ef6 7d3f
00000040: b639 7f3f 7827 803f 873f 763f 2be9 7e3f
00000050: 2f1b 7f3f 127d 7b3f 26d7 7b3f a007 7e3f
00000060: 113d 833f a4c7 7e3f 334f 803f 9b92 823f
00000070: 4e4b 803f 8be1 823f 6764 7b3f 895d 813f

model.encoder.transformer_encoder.mhca_layers.0.norm1.bias f4 [32]
-0.0012677165 0.0058617345 0.00078351615 0.0017351666 7.962051e-05 -0.0037799906 -0.004306389 -0.01537192
0.0049600047 0.0086427 0.009642164 0.008827632 -0.0065363804 0.010605627 -0.0045418628 0.007179265
-0.011535605 0.0044788704 -0.009594312 0.0048145624 -0.007825018 -0.0017404854 0.0029225126 0.006445918
-0.01859531 0.0074323975 -0.004033472 0.00053668226 -0.0030523269 0.01842784 -0.017862555 -0.003624298
00000000: 8229 a6ba cb13 c03b e164 4d3a 886e e33a
00000010: f0f9 a638 b8b9 77bb 9c1c 8dbb 81da 7bbc
00000020: 8987 a23b 1c9a 0d3c 2bfa 1d3c c6a1 103c
00000030: 222f d6bb 39c3 2d3c e8d3 94bb 0a40 eb3b
00000040: d6ff 3cbc 7dc3 923b 7631 1dbc 7ac3 9d3b
00000050: 8134 00bc 0021 e4ba a087 3f3b 4838 d33b
00000060: 3155 98bc 788b f33b 372b 84bb 23b0 0c3a
00000070: 8c09 48bb fbf5 963c 7e54 92bc a185 6dbb

model.encoder.transformer_encoder.mhca_layers.0.norm2.weight f4 [32]
1.0223237 0.9805961 1.0171758 0.9912408 1.0162483 1.0151988 0.98104316 1.0087928
1.0196569 0.98128027 1.0174516 0.9685688 0.97344416 1.0303642 1.013634 0.97897196
1.0427164 1.002138 0.9750576 1.0038341 1.0048051 1.0017198 0.9940428 1.0666362
1.0293897 1.0104682 0.9939763 1.0130522 1.033423 1.0039489 1.0270702 0.9840198
00000000: 81db 823f 5908 7b3f d132 823f f5c1 7d3f
00000010: 6d14 823f 09f2 813f a525 7b3f 1f20 813f
00000020: 1e84 823f 2f35 7b3f db3b 823f 20f4 773f
00000030: a333 793f f9e2 833f c2be 813f e89d 7a3f
00000040: bb77 853f 0f46 803f 609d 793f a37d 803f
00000050: 749d 803f 5b38 803f 9779 7e3f 8987 883f
00000060: 0bc3 833f 0657 813f 3b75 7e3f b2ab 813f
00000070: 3447 843f 6681 803f 0977 833f b9e8 7b3f

model.encoder.transformer_encoder.mhca_layers.0.norm2.bias f4 [32]
0.013851479 0.0017734149 -0.002441543 0.0031151047 -0.0110441465 0.004327479 -0.0035998884 -0.0073765684
0.013099523 0.0045444258 0.00068458705 -0.00013559381 -0.016818447 -0.010239819 -0.012319507 0.018446235
-0.0015000579 -0.00081563275 -0.006312025 0.0003304447 -0.006334884 -0.00021736768 0.012111834 0.008233798
-0.009093566 -0.0071261236 0.00096849044 -0.016782638 0.0036426191 0.015230699 -0.007360031 -0.0022885548
00000000: 50f1 623c ee71 e83a 4b02 20bb c926 4c3b
00000010: 82f2 34bc 86cd 8d3b 1bec 6bbb 24b7 f1bb
00000020: 629f 563c 68e9 943b dc75 333a 302e 0eb9
00000030: d7c6 89bc eac4 27bc c2d7 49bc 8f1c 973c
00000040: 979d c4ba 30d0 55ba 1ad5 cebb 893f ad39
00000050: dc94 cfbb 31ed 63b9 b770 463c 0de7 063c
00000060: 2efd 14bc 4282 e9bb 4be2 7d3a be7b 89bc
00000070: 02b9 6e3b 2f8a 793c 6a2c f1bb 94fb 15bb

model.encoder.transformer_encoder.mhca_layers.1.attn.to_q.weight f4 [48, 32]
-0.0098822545 0.17812875 0.051759433 -0.29338777 -0.13719608 -0.26727468 0.10688093 0.35700908
-0.2348271 0.14723693 -0.34620616 0.19005029 -0.41400322 -0.1486258 -0.011671695 -0.06999971
0.19941255 -0.15125582 0.12959795 0.20687112 0.11548698 -0.41690573 -0.24169484 -0.12272643
0.038958997 0.16557465 0.29018965 0.08897535 -0.32832584 -0.4162177 0.38819283 -0.008431188
-0.3512552 -0.15318234 0.12537389 0.017607972 0.24302533 -0.04543183 0.024718175 0.46614787
-0.3617331 0.09600808 -0.3895908 -0.2721417 -0.43049565 0.24565886 -0.04116219 0.18819048
0.028634822 0.15483145 -0.41595817 -0.17524232 -0.13454746 -0.32269046 0.20051153 0.28301325
-0.12502798 -0.33637518 -0.22309458 -0.44977194 -0.3069117 -0.11369457 0.1017517 -0.2189313
-0.33415222 0.20579058 0.33330092 0.055298533 -0.08406118 -0.1950064 0.13639782 0.05883113
-0.19657794 0.30930424 0.24491464 0.31181535 0.2957442 -0.24352348 0.41248098 -0.0020348565
-0.4049902 0.26738247 -0.2946322 -0.22119448 0.076784804 0.3046471 0.073568165 -0.36012027
-0.28918788 0.15375789 -0.11316003 0.10309877 0.38060158 -0.28444865 -0.3709531 -0.15079613
-0.004674942 -0.1930153 0.3986195 -0.20798346 0.2352337 0.17877059 0.36426687 -0.4319626
0.35777637 -0.0698019 -0.21075796 0.027371345 0.26138255 0.23285235 -0.21389858 0.13880928
-0.0571997 0.15725848 -0.012949774 -0.1413329 0.16564913 0.3391917 0.2565558 -0.09202965
-0.016406253 0.05924106 -0.2861914 0.35449892 0.25619483 0.18686065 0.45213264 -0.069099344
0.3022404 -0.044903696 0.3140346 -0.25977737 -0.38110682 0.22827053 0.112535186 -0.3817307
0.21181753 -0.09228876 0.1865282 0.42368963 0.34053335 0.022384072 0.23204818 -0.3767995
0.049387027 0.13033281 0.20998836 0.13660239 0.30897683 0.034390815 0.13061038 -0.4038116
-0.19669227 0.18880871 0.16625378 0.15218844 0.10201583 -0.40949127 0.16782066 -0.12520616
-0.10378626 -0.014492247 0.37577286 0.35613117 0.24491996 -0.18567747 0.13371715 0.15153414
0.33234823 0.0057541574 -0.37953845 0.17213675 -0.32437658 0.03904665 0.25411975 0.16245848
0.42218772 0.40081045 -0.3771629 0.039937537 0.16697198 -0.067677855 -0.25550002 0.40126935
-0.25118637 -0.37985712 -0.37656897 -0.21799077 0.003758831 0.27490824 -0.046513584 -0.31947348
0.35340196 -0.032636985 -0.13705522 0.01250399 0.15384042 -0.06635216 0.18750052 0.19575159
-0.3401057 0.3899035 0.28817314 -0.047164064 0.28826222 -0.13065927 -0.11239101 0.16939841
-0.28670862 -0.12790424 -0.262683 -0.055229913 -0.17843987 -0.16116215 -0.09044168 0.30221182
0.10912505 -0.40048254 -0.29035568 -0.027194032 0.1920762 0.25791964 0.38332236 -0.260009
0.42333627 0.2605001 -0.3426187 -0.3308031 -0.3433026 0.002021808 -0.10971096 -0.4051017
-0.088834725 0.29747605 -0.048081376 -0.34587178 -0.28458574 0.15808678 0.13977084 -0.18532097
-0.35423198 0.17381036 -0.23838101 -0.38103765 0.39351845 0.14573413 -0.07546952 0.08339579
0.36714715 -0.3946349 -0.10534525 -0.15417014 -0.44072896 0.36040425 -0.4005432 -0.1769045
00000000: 2ee9 21bc 6267 363e b301 543d ec36 96be
00000010: 217d 0cbe 3ad8 88be 64e4 da3d e5c9 b63e
00000020: 8476 70be 47c5 163e ef41 b1be 8b9c 423e
00000030: 3bf8 d3be 5d31 18be a33a 3fbc 025c 8fbd
00000040: ce32 4c3e cee2 1abe 53b5 043e 06d6 533e
00000050: 7084 ec3d ab74 d5be da7e 77be ff57 fbbd
00000060: 7893 1f3d 678c 293e bd93 943e b538 b63d
00000070: 531a a8be 7d1a d5be 36c1 c63e f722 0abc
00000080: b9d7 b3be d5db 1cbe 0362 003e 983e 903c
00000090: a2db 783e ba16 3abd c57d ca3c efaa ee3e
000000a0: 1535 b9be e29f c43d 7278 c7be 2856 8bbe
000000b0: ed69 dcbe ff8d 7b3e af99 28bd 01b5 403e
000000c0: 9393 ea3c 238c 1e3e 78f8 d4be b972 33be
000000d0: cfc6 09be af37 a5be e552 4d3e 1de7 903e
000000e0: 5607 00be 5e39 acbe e872 64be 8248 e6be
000000f0: 8823 9dbe b3d8 e8bd 3263 d03d 872f 60be
00000100: 0016 abbe c4ba 523e 6ba6 aa3e b780 623d
00000110: 4528 acbd c2af 47be dfab 0b3e e9f8 703d
00000120: ba4b 49be 205d 9e3e e7ca 7a3e 43a6 9f3e
00000130: c96b 973e 385e 79be b530 d33e 3a5b 05bb
00000140: e05a cfbe 5be6 883e 08da 96be ce80 62be
00000150: 5a41 9d3d b4fa 9b3e e8aa 963d af61 b8be
00000160: 6f10 94be b572 1d3e 72c0 e7bd 7325 d33d
00000170: 36de c23e 41a3 91be 91ed bdbe 4d6a 1abe
00000180: 4230 99bb cea5 45be db17 cc3e 9ef9 54be
00000190: 1ae1 703e a30f 373e 3081 ba3e 342a ddbe
000001a0: 772e b73e 4cf4 8ebd efd0 57be df39 e03c
000001b0: efd3 853e d970 6e3e 3b08 5bbe 0524 0e3e
000001c0: 3c4a 6abd 5e08 213e 4a2b 54bc 92b9 10be
000001d0: ed9f 293e 89aa ad3e 485b 833e 0b7a bcbd
000001e0: 6866 86bc c1a6 723d ae87 92be e280 b53e
000001f0: f82b 833e 6658 3f3e ee7d e73e f583 8dbd
00000200: 41bf 9a3e f0ec 37bd 25c9 a03e 8a01 85be
00000210: 6f20 c3be c0bf 693e d978 e63d 3572 c3be
00000220: b2e6 583e e401 bdbd 4001 3f3e d9ed d83e
00000230: 635a ae3e cd5e b73c 0a9e 6d3e ddeb c0be
00000240: 0d4a 4a3d f775 053e 3007 573e 7fe1 0b3e
00000250: 3632 9e3e 62dd 0c3d babe 053e 65c0 cebe
00000260: b369 49be 1257 413e 6e3e 2a3e 49d7 1b3e
00000270: aded d03d d7a8 d1be 2ed9 2b3e 0b36 00be
00000280: e48d d4bd e470 6dbc 4d65 c03e d356 b63e
00000290: 4ccc 7a3e 3c22 3ebe 26ed 083e c42b 1b3e
000002a0: 8c29 aa3e 5f8d bc3b dd52 c2be 9e44 303e
000002b0: b014 a6be 61ef 1f3d fc1b 823e 845b 263e
000002c0: fd28 d83e 0737 cd3e 7f1b c1be 8b95 233d
000002d0: b4fa 2a3e b09a 8abd e6d0 82be 2d73 cd3e
000002e0: 809b 80be a27c c2be a6cd c0be f938 5fbe
000002f0: b856 763b c6c0 8c3e 0785 3ebd 0792 a3be
00000300: 1af1 b43e 5cae 05bd 3458 0cbe 89dd 4c3c
00000310: 5888 1d3e a4e3 87bd 2300 403e 1b73 483e
00000320: 5622 aebe 6ea1 c73e 6e8b 933e 1b2f 41bd
00000330: 1b97 933e 8bcb 05be 422d e6bd c776 2d3e
00000340: 79cb 92be 54f9 02be 637e 86be c338 62bd
00000350: f1b8 36be b107 25be 7d39 b9bd 82bb 9a3e
00000360: f47c df3d 0c0c cdbe 80a9 94be 05c6 debc
00000370: a0af 443e 0b0e 843e d442 c43e e61f 85be
00000380: 88bf d83e 4560 853e b86b afbe 065f a9be
00000390: 5cc5 afbe 4f80 043b 24b0 e0bd 7d69 cfbe
000003a0: fbee b5bd c84e 983e faf0 44bd 1b16 b1be
000003b0: 39b5 91be 80e1 213e 1620 0f3e c8c4 3dbe
000003c0: e55d b5be 58fb 313e 271a 74be 5e17 c3be
000003d0: 407b c93e 543b 153e c48f 9abd 69cb aa3d
000003e0: b6fa bb3e 960d cabe 40bf d7bd c7de 1dbe
000003f0: 3aa7 e1be e886 b83e 0014 cdbe 7426 35be
